Mobile detection/Classification/speed_limit.tflite (tflite, 249484 bytes, 10 tensors)

sequential/dense/BiasAdd/ReadVariableOp f4 [120]
00000000: b7c9 943d c4b9 3dbd 6012 073e a005 9ebd
00000010: d925 b7bc db91 893d 4ed8 d93c 7564 323d
00000020: d713 16bb 1f49 c8bc f6fa 983c 040a 873d
00000030: d758 debb e2f2 3cbd 5001 84bd 5f5a febc
00000040: b8f2 e93d 47a4 b0bc 2a84 9cbc 762e 733b
00000050: a7d4 fa3c 6f7e a8bc 47df 4e3d 7e7f d93c
00000060: f3bc 2c3e db8f 6f3d 4950 063c bcf0 9c3d
00000070: 48bd a1bc de24 413c eb3e 3fbe 3d18 4cbc
00000080: 789e 5a3d d632 03bd 2369 c93c 177e 603d
00000090: 57ec 593c 21ba fcbc c2ae c33d 8099 6dbd
000000a0: 0733 a1bc e286 053d 2910 843b 1740 e8bc
000000b0: a1e1 513d 44c1 c63d a846 c53d 1fa6 e2bc
000000c0: 5d07 fd3c 813b 1a3d 2d57 263d 97c6 f6ba
000000d0: 741d 1cbe ec6d 8bbc c6f3 34bd 9b6a 963d
000000e0: 1a08 d63d 770e 95bd 714b a53d 920c 6dbb
000000f0: c5be 9f3d 95ba 8a3c 36dc 803d 3d95 613c
00000100: 0546 18bd 30ec 373d 59cc 8a3d d034 2ebd
00000110: 32e5 443d 5e0a cfbc 4d5d 373d e2a8 d83d
00000120: 95b9 59bd 0376 fbbc 90b5 0739 0977 98bc
00000130: 201b f1bc e152 6fbd 55c5 8abc 356f 8d3d
00000140: 9ec2 0c3e 831c bf3d aa2e d13c 05a4 3d3d
00000150: 7b5c 1fbd 7131 d03d a9a6 983d 9113 583d
00000160: 3286 643c f190 7f3d a213 c0bb b28c eebc
00000170: b923 b2bc 8076 9cbc 7770 a63d 9957 103d
00000180: dee9 83bd 2955 973d da05 d53c a15a 083d
00000190: b645 cbbd 5ec8 01bd f9be 473d b03c 7dbc
000001a0: a762 283d 2847 88bc f5d4 05bc 5429 153d
000001b0: 0839 c23c 8246 07bd 77d3 47bb 6dae 7e3c
000001c0: 4086 0dbd 0557 9b3b 7573 9c3d 9545 d93d
000001d0: f793 3f3d 962d 5ebd 4eda 1a3c d9bc c63b
0.072650366 -0.046319738 0.13190603 -0.07715917 -0.022356914 0.06717273 0.0265924 0.043552835
-0.002290001 -0.02444893 0.018674355 0.06593707 -0.006785493 -0.04613007 -0.06445563 -0.031048952
0.11423248 -0.021562709 -0.01910599 0.003710655 0.030618979 -0.0205681 0.050505903 0.02655005
0.16868953 0.0584868 0.008197852 0.07663104 -0.019743577 0.011788575 -0.18676345 -0.012456951
0.053373784 -0.032030903 0.024586266 0.05480775 0.013300977 -0.030850472 0.09554817 -0.058007717
-0.019677652 0.032599337 0.0040302468 -0.028350873 0.051240567 0.09704831 0.09632617 -0.027667103
0.0308873 0.037654404 0.04061048 -0.0018827495 -0.1524561 -0.017020188 -0.044177793 0.07344552
0.10450764 -0.072781496 0.0807103 -0.0036170823 0.07800058 0.016934672 0.06292002 0.013768491
-0.03717615 0.04490298 0.067772575 -0.042530835 0.04807014 -0.025273498 0.044766713 0.10579087
-0.0531555 -0.03069592 0.0001294224 -0.018611448 -0.02943188 -0.05842865 -0.016939798 0.06905977
0.13746116 0.0933161 0.025534946 0.046299 -0.038906556 0.1016568 0.07453663 0.052753035
0.01394801 0.062394086 -0.0058617154 -0.029119823 -0.02174555 -0.019099474 0.0812692 0.03523979
-0.06441091 0.0738929 0.026003767 0.033289555 -0.09925406 -0.031685226 0.04876611 -0.015456364
0.041109707 -0.016635492 -0.008168449 0.036416367 0.023708835 -0.033026226 -0.0030491033 0.015544516
-0.03455186 0.004740598 0.07639209 0.10608975 0.04677197 -0.054242693 0.009451462 0.006064993

sequential/dense_1/BiasAdd/ReadVariableOp f4 [84]
00000000: 56e8 d63d eb1e 8a3d c40d 45bb 3fde 173d
00000010: 21be 0f3e b255 e53c c116 003e 0273 483d
00000020: ca06 41bc 9b86 2c3d 9a79 0d3e 3c69 b53c
00000030: 4599 853d 77a9 0e3d e367 c03d 0474 663d
00000040: f5f4 283d eb24 ac3d cfc8 ce3d c97f 9f3d
00000050: 7010 933c 4357 823d d114 9dbc f3f6 8abc
00000060: 5abb 4d3e e25e f53d 2ffc 893d 313e 15bd
00000070: 0b5d d53d dfc8 c63c 4878 bf3d 7fe3 8c3d
00000080: f8db a53d ff38 e63d e3b9 a43d 1c83 633d
00000090: 4a8a cb3d 89f7 e3bc de24 d33d 44ef 2a3d
000000a0: ad42 093c a2ed 66bd 1a98 183d ed25 3abd
000000b0: 40dd a13c f087 b13d 71e1 4bbd 7d37 523d
000000c0: 931e ad3d 1bec 87bc c867 cebc b8fe f73a
000000d0: 0e57 6bbd 757d c83d d09a ce3d fac5 723d
000000e0: 8514 0cbd 4955 513d fb4f a83d c2ce 673d
000000f0: eea8 bd3c 3628 653d 864e 4d3c 9aed a93d
00000100: 400e 693d 10de 673d becd 05bb 7dff 90bb
00000110: c946 353c 450c 44bc a827 093e c71e 813d
00000120: dd13 513d b711 f33b 0cd5 a73c 83d7 8b3b
00000130: 9b41 273d 917c 5e3e 280a 203d fcd0 bc3d
00000140: 712e 0abd 661d 1ebb ce3c 233d 9bcc 9a3d
0.10493533 0.067441784 -0.003006802 0.037077185 0.14037372 0.027994964 0.1250868 0.048937805
-0.011781404 0.042120557 0.13815919 0.022144906 0.065233745 0.034829583 0.09394815 0.056262985
0.041249234 0.08405479 0.10096895 0.07788045 0.017952174 0.063643 -0.019174965 -0.016963458
0.20091 0.11980988 0.06737553 -0.036436263 0.10418137 0.024265705 0.09349114 0.06879329
0.08098596 0.1124134 0.080432676 0.055544958 0.09938486 -0.027827995 0.10309766 0.041732088
0.008377713 -0.056378968 0.03725443 -0.045446325 0.01975882 0.08668506 -0.049775545 0.05132245
0.08453097 -0.016592076 -0.025195971 0.0018920517 -0.05745607 0.09789554 0.10088122 0.059270836
-0.034199256 0.051106725 0.0821838 0.056593664 0.023151841 0.05594655 0.0125309285 0.08297272
0.056898355 0.05660826 -0.0020416821 -0.004424988 0.01106424 -0.011965816 0.13394034 0.063046984
0.051044334 0.0074178833 0.02048733 0.0042676344 0.04083405 0.21727206 0.039072186 0.09219548
-0.033735696 -0.002412641 0.03985291 0.07558557

sequential/dense_2/BiasAdd/ReadVariableOp f4 [10]
00000000: d1fb fabd e331 083e e458 3fbc d9fb 05bd
00000010: d59e c1bd b521 a53d 2a1f 593e 9e82 5d3d
00000020: c1f1 1fbc dba2 25be
-0.122550614 0.1330028 -0.011678908 -0.032710884 -0.09454123 0.0806307 0.21203294 0.054079644
-0.0097622285 -0.16175406

sequential/dense/MatMul f4 [120, 400]
00000000: 21b5 acbd d57b 0c3e 89dc bfbb 801b 863d
00000010: 9633 cb3d 57d8 883b 37cb 2cbe e767 e83c
00000020: 571e dfbd 2bd6 eb3d b81d d73d 2b9d c13d
00000030: d342 95bd 7c58 a6bb ed4b ecbc 9a49 8a3d
00000040: 555f 0ebe 5a5f f23d fdf3 0c3e ab79 f83d
00000050: a196 df3d 71e1 eebc d000 53bd 9acc 713c
00000060: 923f 8fbd cb52 653e 0fa2 423d a8e3 04bc
00000070: c08c 8abc 10d1 9cbd 9cb2 19be 47ab 03be
00000080: 27fa 9dbc 132c 673d b148 443e 7df5 f03c
00000090: 0a6b cf3d 92b9 16bd ee3f c0bd 829c 1dbd
000000a0: 2280 e8bd 0ca6 913d a596 6ebe 5b51 08be
000000b0: 191c 3b3e 143f 50bd 4708 d63a 6a8a f5bd
000000c0: 1a64 e63d 1873 823d c642 52bd 374e 9dbd
000000d0: b9c5 09bd d94d 783d a025 2cbc 9779 303d
000000e0: 3bca 33be d66e 023d efbb 63be f56a ffbd
000000f0: 1159 b63c 93b3 42bd fff9 b1bc 52c9 293d
00000100: e25e 823d 4b14 97bc 988e 7dbd 10f0 06be
00000110: 1b99 b43b b17d b2bc df0c 26bb 2ba8 fcbc
00000120: 7fe7 ef3c 9b9b 333d aef0 35bd b947 93bd
00000130: 1174 3abd 38b4 bc3d 6288 b93a c6b0 873d
00000140: 90a8 23bc faa4 bf3d 3469 14ba 146e 13be
00000150: c11f 29be c227 a6bc 6815 063e 9174 833d
00000160: a83e 673c f4b0 933d 14f3 163e b0f2 c23d
00000170: 09aa 1e3d 2bf9 c53c 0339 5a3d efd3 30bc
00000180: 90fa 243e 92d8 1a3e fec5 0a3e ab8b 5cbe
00000190: cfaf 823d ad16 ce3d 8180 a2bc e3c6 133e
000001a0: f370 65be 77f4 913d e05d 9a3e 1935 b4bc
000001b0: 75e8 903d ad22 613b aae0 8fbd 1b6b 8ebd
000001c0: 2fc7 2b3e 001e 2b3e cc3d b83d bc19 bdbd
000001d0: 6019 7b3e a4f2 ff3d c834 dc3d 5365 7a3e
000001e0: 752f 0cbe 244d 7e3c fab6 9c3e 5872 24be
000001f0: 30a6 0e3e 6642 a13c 5409 f3bd 485a 953d
00000200: 9c4f 2b3e e639 a83d a2d0 dcbc 9de9 febc
00000210: 487e 2d3e 905c 3c3e 5eaf a93d b6bf bb3e
00000220: 8520 81bd b942 ac3d cf87 1b3e 9f85 62bc
00000230: 142d ce3d 3d61 d73d 49c0 05be 0e21 363e
00000240: d7e7 5bbc 64f9 0b3e 73fe 15be 37a2 f23b
00000250: c541 393e b984 973c 84bf fdbd e0dd 943e
00000260: cc81 fb3a b2b6 88bc e0b1 7d3d 3de5 ddba
00000270: c509 063e 924b 933c f2a9 3dbc 49ab f13d
00000280: a06c 7d3c 974d eebd e496 39bd b99a 7a3d
00000290: 7b12 97be aba6 2a3d c76a fc3d de00 633d
000002a0: 4583 ba3d 7b92 58be 0245 b9bd 6efc 17bd
000002b0: 1256 053e 3665 973d fe72 6cbd ea73 4cbd
000002c0: 6146 043e 9ed4 82be e66f 3cbe 5a83 4c3d
000002d0: 2f86 5dbe 6869 0a3d c4df 063e 4731 743d
000002e0: 566d 963e a3b1 6cbe f600 4c3d a439 68bb
000002f0: fb76 90bc 32e8 f23d 2f54 9b3b b8d9 80bc
00000300: 4f67 433d d3d0 7ebe 2b6f 9fbd 3036 073e
00000310: 8598 7fbd 3630 07be 3b51 0e3e a6e6 7b3d
00000320: 3214 ca3e e50d d2be 1cdb 6e3d f230 1a3e
00000330: 8ba5 093e f4e3 0c3e 0687 dfbb 9d89 a43d
00000340: e573 1b3c 0056 40be 096a 37be 3dc9 013c
00000350: d467 d23d f0ca 08be 1763 3abe 97a8 09be
00000360: cc3a 553e 4212 c9be 11fa 213e 68ec 893e
00000370: 15a1 95bc a5ab 5b3e f74b 7c3d 6465 11bd
00000380: 04fc 59be a3fc 0a3e e7ed c8bd 4f6c c13d
00000390: 1719 0b3d 0196 d1bd b9ad 40be e24d c73c
000003a0: 09b4 cebd 887e 14be a87f 13bd 8a28 e13d
000003b0: 2694 073c 6ec5 a23d 3262 8ebd 7bee d7bd
000003c0: 5a9d 91bc 5fda 53be bad5 993d bb2b 78bc
000003d0: 8fe9 cbbc 5e0f 7bbe 8c9e 14be 9d29 a4bc
000003e0: 521c 38bd 57b8 91bd 134c 4fbe e4df 81be
000003f0: bd6d 85bd a2f4 ccbc b3d8 6cbb 320c 073e
-0.08432985 0.13719113 -0.0058551473 0.06548214 0.099219486 0.0041761803 -0.16874395 0.028369857
-0.10894459 0.11515459 0.10503715 0.094538055 -0.07288136 -0.005076466 -0.028844798 0.0675232
-0.13903554 0.11834593 0.13764949 0.12132581 0.10917402 -0.029160233 -0.051514447 0.0147582535
-0.06994547 0.22394864 0.047517832 -0.008110918 -0.016912818 -0.07657063 -0.1500954 -0.12858306
-0.019284321 0.056438517 0.19168355 0.029413933 0.10127838 -0.036798067 -0.093871936 -0.038479336
-0.113525644 0.07111749 -0.23299654 -0.13312285 0.18272437 -0.050841406 0.0016329371 -0.11989291
0.112495616 0.06369609 -0.05133321 -0.07680934 -0.03363583 0.060621116 -0.010507017 0.043084707
-0.17557614 0.031843983 -0.2223966 -0.12471572 0.022259267 -0.047534537 -0.021725653 0.04145176
0.06365754 -0.018442294 -0.061903566 -0.13177514 0.0055114157 -0.02178845 -0.0025337262 -0.030841907
0.02928519 0.04384957 -0.044418983 -0.071914144 -0.045520846 0.092140615 0.0014155025 0.06625514
-0.009988919 0.09357639 -0.00056614284 -0.1439746 -0.1651602 -0.02028263 0.13094103 0.06418718
0.0141140595 0.072114855 0.14741164 0.09518945 0.038736377 0.024166664 0.053277027 -0.010792716
0.16111207 0.15121678 0.1355209 -0.21537654 0.06381189 0.10062919 -0.019836666 0.14431338
-0.22406368 0.07126706 0.30149746 -0.021997975 0.07075588 0.0034352944 -0.07025273 -0.069540225
0.16775201 0.16710663 0.08996162 -0.09233424 0.24521399 0.12497452 0.10752255 0.24452715
-0.13689978 0.015521321 0.3060835 -0.16059244 0.13930583 0.019684982 -0.118670136 0.072926104
0.16729587 0.08214168 -0.026954953 -0.031117255 0.16942704 0.18394685 0.08285402 0.366697
-0.06305031 0.08411164 0.15188526 -0.013825803 0.10067192 0.105165936 -0.13061632 0.17786047
-0.013421974 0.13669354 -0.14647846 0.0074045914 0.18091495 0.018495904 -0.12390044 0.29075527
0.0019188463 -0.016688678 0.061937213 -0.001692928 0.13089664 0.01798037 -0.011576163 0.11800248
0.015467793 -0.11635893 -0.045309916 0.06118271 -0.29506287 0.041662853 0.12325054 0.05542075
0.09107069 -0.21149628 -0.09046365 -0.03710597 0.13021114 0.07392351 -0.057726853 -0.04991523
0.12917472 -0.2555284 -0.18402061 0.049929954 -0.21633218 0.03379193 0.13171297 0.059617307
0.29380292 -0.23114638 0.049805604 -0.0035434747 -0.01763486 0.11860694 0.00474026 -0.015728816
0.047705945 -0.24884348 -0.077848755 0.13204265 -0.062401313 -0.13201985 0.13898174 0.06149926
0.39468533 -0.41026226 0.058314428 0.15057734 0.13442056 0.13758832 -0.006821516 0.0803406
0.009488081 -0.18782806 -0.17911543 0.007921514 0.1027371 -0.13358665 -0.18201862 -0.13443218
0.2082321 -0.39271742 0.15818049 0.26938176 -0.018265286 0.21452196 0.061595883 -0.035497084
-0.21287543 0.13572936 -0.09811001 0.09444486 0.033959474 -0.10233689 -0.1881627 0.02432913
-0.10092933 -0.14501393 -0.036010414 0.1099406 0.008275067 0.07947813 -0.06952323 -0.105435334
-0.017775226 -0.2068877 0.07511468 -0.015147145 -0.024891643 -0.24517581 -0.14513606 -0.020039374
-0.044948883 -0.07115238 -0.20243864 -0.25366127 -0.065150715 -0.025018994 -0.0036139905 0.13188246

sequential/dense_1/MatMul f4 [84, 120]
00000000: 9ccd 873d 69eb c03b 001d 323e 5cc5 32be
00000010: 2647 9fbd 8ce7 133c 7258 d2bd 9a61 143e
00000020: 0d33 913d dc08 52be 00ef 2e3e 36ec 36be
00000030: a447 81be e0b0 57bc c00c 903d 196a e43d
00000040: a2ac c23c 9c6e 2b3e 0fd8 923e 5a75 f9bc
00000050: 081f a7bd 7bcc c4bd 7ee8 fb3d 049b ca3d
00000060: 728f 323e b3fd dfbe 298f 10be 6e31 1e3e
00000070: e0c4 f2bb aaa6 58bd e0d2 abbb c057 473e
00000080: 1f90 113e f418 db3d e585 c13d f075 f03d
00000090: 1263 793a ce8f b63d 4389 d63d 8c4d a2be
000000a0: 8b9a 9fbe 4b99 d4bd aba0 833d 1e92 43be
000000b0: 7f84 74be f087 583e b7cb ca3e 8011 04be
000000c0: 0957 503e 3e68 2b3d 6e19 213d b055 abbb
000000d0: e3f2 923b 9698 633d f394 febd 1d45 64bd
000000e0: 95ba f53d eee6 03be 94f1 4bbd 2a02 273e
000000f0: 71a2 423e eb2d 263d 4c2e febc 2fbf 44bc
00000100: 5e84 953d 0d40 2fbd 19b6 a43e 8be2 f2bc
00000110: 6d55 efbd 8e60 0e3e 1dbe 92be 4bbc ccbd
00000120: 6fd7 213e 1ca6 3c3d 70d8 49bd b007 e1bd
00000130: ea6a 8ebe e543 803d 7e5f e73d 1c15 173e
00000140: 427a 56be 0037 b23c 7d15 7cbe 0bd6 d3bb
00000150: 5858 1ebe 25b1 513e e849 8b3e a6c1 373e
00000160: abc1 0cbe c04d 0339 fc2a acbe a897 80bd
00000170: 8ec5 df3d 2161 ddbd 925f 3c3d c33a d23d
00000180: fd8d 43be d8fa a1bd 5c69 59be 0787 36be
00000190: bb51 b4be cff5 d5bd 479c 483e 29b2 173e
000001a0: ffaf a3be c4b9 a3bc 7ace a13e acdb 593e
000001b0: f4c9 a2be 39ab cd3d 9733 5dbe 0fef 003e
000001c0: 90b8 9d3c 1dc1 6b3e eaa6 58b9 b319 21bd
000001d0: 5159 1fbe 1072 333d 2d2a a8bd 7f1f 6a3e
000001e0: 14b9 96bd 5bda 36be 2347 a1bd f906 3e3e
000001f0: 0064 0bbe a7dc 4e3e 2014 9bbe 6d98 073e
00000200: d84e bb3b 5003 f3bd 1350 793d 8246 293d
00000210: 89c7 a4be 7749 0fbd 10ad 863e 6677 993d
00000220: 4191 2dbd 0dca 05be 049f 50bd b53c 15bd
00000230: d2b3 ab3e 12de 8c3d 61f3 3a3d 5286 a93e
00000240: a11c 283e cf66 dabe 4d56 eb3d 28d6 6fbd
00000250: df72 8bbd a114 a0bd 84a4 3a3d a2f1 3c3e
00000260: 8697 773e ab74 1e3d fffb b83d d2e9 f4bd
00000270: b49e bcbd eab6 d63d 016d dfbd a18d 1a3e
00000280: 5544 58bd e30d d8bd 634f 733e f453 02ba
00000290: da59 a5bd 081e 383e a577 653e 078a 99bd
000002a0: c97f b9bb 59b5 62bb 0880 a1bd a740 1c3e
000002b0: 3b10 10bd 51cb 2c3c f270 1c3e e4a3 a7bd
000002c0: 481a 823e 6784 24bc cc19 54be 09e3 cfbd
000002d0: 8b0c c8bc 873a 47be 9569 2fbe 9a19 af3e
000002e0: d705 41bd b110 a73d 73a4 343e 7cf5 43be
000002f0: a732 8abe 8e33 04bd b1b5 a5bd c55c 90bd
00000300: e72c a9bd 048a bcbd 6b2a eabc fe2b 2bbe
00000310: 27e4 03be 1b60 80bd 9254 ac3d 184e 58bd
00000320: bf9b b9bd e193 05be c74c 863d 1e85 0d3e
00000330: c749 603d 5fe7 7e3e e56b a0bc f6be 68bd
00000340: b154 92be 7129 873d a9bf dcbd 25bb 8abd
00000350: 5650 a8bd 131f 373e d5d4 093c c222 323e
00000360: a0e2 d8bd 2e69 753d 9b6f 0d3e a588 43be
00000370: 9d68 15be d399 d43c ddee 73be 0f38 d4bd
00000380: b601 0d3e 3601 a9bd ce9a d63e 3606 98be
00000390: 44a4 2abe ed34 00bd 8fff 173e 7a4b c83d
000003a0: d72c cdbd 7a3b e03d 09b7 d5bd 4394 7b3e
000003b0: 9ea4 fdba 2571 c5bb 4964 eb3d 0007 183e
000003c0: ba4d 43bc 41f9 54bd 4587 483e be84 af3d
000003d0: 7a91 bfbd 034b 6e3e b2aa 193e ed97 4abd
000003e0: e9de ee3d 47dd 6cbd afab 5a3c afec 67bd
000003f0: 9172 143e 7a97 bd3c b415 eabd 2cbb 943d
0.06631014 0.005887438 0.17393875 -0.17458099 -0.07777242 0.009027373 -0.10270776 0.14490357
0.07089815 -0.20511192 0.17083359 -0.17863545 -0.2524997 -0.013164729 0.07033682 0.11153049
0.023763958 0.16741413 0.28680465 -0.030451465 -0.081602156 -0.09609314 0.12300204 0.09892848
0.17437533 -0.43748245 -0.14117111 0.15448543 -0.0074087232 -0.05289332 -0.005243644 0.19467068
0.14215134 0.10698119 0.094493665 0.11741245 0.0009513359 0.08914147 0.10475399 -0.3169979
-0.31172594 -0.10380801 0.06427129 -0.19098708 -0.23878668 0.21145606 0.39608547 -0.128973
0.20345701 0.04184746 0.039330892 -0.0052287206 0.0044845208 0.05556544 -0.124307536 -0.055729974
0.11998478 -0.12881061 -0.049790934 0.1630942 0.19007279 0.040571135 -0.031027935 -0.012008472
0.07300638 -0.042785693 0.3217018 -0.02964904 -0.116862155 0.1390402 -0.2866067 -0.099968515
0.15804838 0.04605685 -0.049278677 -0.109877944 -0.27815944 0.0626295 0.112975106 0.14754146
-0.20945075 0.021754742 -0.24617572 -0.006464725 -0.15463388 0.20477732 0.27204823 0.17944965
-0.13745753 0.00012522098 -0.33626544 -0.06278926 0.109263524 -0.108095415 0.04598958 0.10265114
-0.19097133 -0.07909173 -0.21231598 -0.17824946 -0.35218605 -0.10447275 0.19590865 0.14814056
-0.31970212 -0.01998604 0.31602842 0.21275204 -0.31794703 0.10042424 -0.21601711 0.12591194
0.019253045 0.23022886 -0.00020661546 -0.03933115 -0.15561415 0.04380995 -0.082111694 0.22863577
-0.073595196 -0.17856734 -0.078748964 0.18557347 -0.13612366 0.2020136 -0.30288792 0.1324174
0.005716186 -0.11865866 0.06086738 0.041327007 -0.32183483 -0.03498217 0.2630391 0.074934766
-0.042374853 -0.13065358 -0.0509329 -0.036434848 0.3353563 0.06878294 0.04564226 0.3311029
0.16417171 -0.42656562 0.1149107 -0.058553845 -0.06809019 -0.07816435 0.04556705 0.1845155
0.24178895 0.038685482 0.090324394 -0.1195866 -0.09209958 0.10484107 -0.10909463 0.1509309
-0.05279954 -0.10549524 0.23760752 -0.00049716164 -0.080737785 0.17980206 0.22408922 -0.0749703
-0.005660985 -0.0034592955 -0.07885748 0.15259038 -0.03517173 0.010546521 0.1527746 -0.081855565
0.25410676 -0.010041333 -0.20712966 -0.101507254 -0.024420043 -0.1945592 -0.1713012 0.3419922
-0.04712471 0.081574805 0.17640857 -0.19136614 -0.2699177 -0.03227573 -0.080912955 -0.070489444
-0.082605176 -0.09206012 -0.02858468 -0.16716 -0.12880002 -0.06268331 0.08414568 -0.05280885
-0.09062909 -0.13044693 0.06557613 0.13820311 0.05475786 0.24892949 -0.019582698 -0.05682274
-0.2858024 0.06599701 -0.10778744 -0.06773976 -0.08218448 0.17882948 0.0084125595 0.17396072
-0.105901 0.05991476 0.13812105 -0.19095095 -0.14590688 0.025952255 -0.23821588 -0.10362255
0.13770184 -0.08252184 0.41914982 -0.2969224 -0.16664225 -0.031300474 0.14843582 0.09780021
-0.10018318 0.10948844 -0.10435302 0.24568276 -0.0019351428 -0.006025451 0.11493737 0.1484642
-0.011920387 -0.05199552 0.19582851 0.085702404 -0.09353919 0.23270802 0.15006521 -0.049461294
0.116636105 -0.057828214 0.013346597 -0.056622203 0.14496829 0.023143519 -0.11429921 0.07262263

sequential/dense_2/MatMul f4 [10, 84]
00000000: 102f 2c3e 8f1f 02bf f357 47be 9d9c c4be
00000010: 8f79 b1be a25e 01bf 86ec 403e 6311 24be
00000020: 4815 d0bb b4d5 c0bd df57 cbbe 5cf8 17bf
00000030: ed1a b03d 7712 b9bc 37a3 c1be 7ec4 f2be
00000040: ec54 2ebe ad82 0c3e b6f3 debe 4a25 843e
00000050: 86a4 0bbe 8ab7 383e c631 76bc 4cb1 923e
00000060: 1dc8 ae3d 4bf1 b23e 4cfc c53e 8272 efbe
00000070: 36b0 42be bc56 783e 6dd7 38be c537 b7be
00000080: 8121 31bf 5375 523e 4294 80be 9d7b 863a
00000090: 4647 60be 3eb2 2fbd 7fb9 cabe 57f9 a73e
000000a0: 10f0 5dbe 9113 bf3d f743 cdbe e4e8 bb3d
000000b0: c7f0 953e 3408 b7be 0c81 483d 97aa c3be
000000c0: 1ed6 3dbd f994 d7be 09bc 87be d66d e43d
000000d0: 5be8 8ebe beeb 563e 60b3 ffbe db11 13bf
000000e0: 65a6 6abe 23a8 60be 2d1a 96be ad5d b6be
000000f0: 5960 d6be a4cc 0e3e a8ee ae3e 8188 b73e
00000100: f426 2abf 67dc ddbd a726 3a3e 981f 7b3e
00000110: ce6e 01bf 2986 b63d 9f6d 263e 1ea6 23bf
00000120: 938a e3be 743b 00bf cce7 febe dea6 c9be
00000130: 5dde 4fbb eb82 97be c49f b5be 0875 933e
00000140: 6139 343e 42fa 473e 0baf 8fbe 3074 c7be
00000150: c969 af3e 7fe6 013e 6267 56be c188 6b3b
00000160: 30e5 593b 32b8 303e 39b5 6e3e a8fb 1b3e
00000170: 2315 7cbe d9d1 b5bd 41be 61be eb62 88bd
00000180: 10a5 e7bb c957 75be 86f5 4b3e abc5 873e
00000190: 8ea0 e2be f087 bd3d 7a18 8c3e ff08 a93d
000001a0: 8c3e 593e 4047 553e 0129 c3be 60d9 4a3d
000001b0: 19f7 4c3e c80e 923e e6a5 cfbe 037f 5dbe
000001c0: c339 c3be 53f0 03bc e427 5dbe 4582 7bbd
000001d0: e66d 473e 3ed7 9f3a dc2e b0be c8b5 463e
000001e0: 7049 a03d fdf2 783e bb5d 7a3c bb95 893e
000001f0: ee97 9abe bb2e ec3d b6e6 e6be 520d 423e
00000200: 5dc7 f3bd dbcc 563d 6a06 623e b10b 2c3e
00000210: d859 6f3e fbd9 92be 9a2b 633c b202 b3be
00000220: 9fce 5ebe 393e 553e b26d bebd 8fe2 2bbf
00000230: 2851 d33d 8f19 06bf 7328 2a3e 7595 82be
00000240: e016 dc3d 4468 debe 36da 2e3e 24c1 813e
00000250: 65f9 b8bc cf5a 3dbe 4847 2ebe ef21 8b3e
00000260: 80a6 91be 60ef 9f3d cfd1 8a3e 1ae7 f9bd
00000270: 48ba 1dbe b9b2 4cbe 7287 89bd 46fb f3be
00000280: 66db b5be 7462 01bf 710a a1be 676f 5e3e
00000290: c8d5 08be 9460 80be 88d1 bc3d f2be 12bf
000002a0: 3648 133a 6951 a03e bfd8 bfbe 2076 d6bd
000002b0: 4ea6 86be b819 dcbd 700e 16be 6c93 193e
000002c0: 47a6 86be b18e 20bd 5db1 10bf 085b 1e3e
000002d0: c178 a1be 6638 bf3e e103 403d 6023 713e
000002e0: 4aba 2fbd 3341 93bd 32f2 8fbe 17b4 72bc
000002f0: f9d1 4cbe ace0 583e 7053 f73c 8076 40be
00000300: 03c2 c6be 88bb 39bd 0893 dcbe 5306 463e
00000310: b2ed 3abf 7a65 14bf 0329 92be 6466 06be
00000320: e0aa b13d 4337 14bf e6b0 623e f2f2 3f3e
00000330: b0c9 0dbf 9b0b 28be 7446 20be e3fc b83d
00000340: 3bce d3bd 47d8 25be 2b8c c4be 457c 133d
00000350: fce4 5a3e ea1e c03d 07cc ecbd f1ed 7b3e
00000360: ba83 453e 4198 9cbe 39ff e8bd e532 c6be
00000370: a11f 1dbe 964e 4a3e 38ea b6be c6ad ba3d
00000380: a440 75bd db90 4b3e bc98 e83d 5aeb 2bbe
00000390: eb1e bbbe f710 16be 8193 a03e 7db8 0e3e
000003a0: bfcd e7be 3bcf 8ebe 8b51 99bd 96f2 333e
000003b0: f830 633e bcf3 903e 8dc8 dabe eeb8 143e
000003c0: e52e a43e 2864 983e 915a 1bbe be75 db3e
000003d0: e3ff aabd f493 d6be fbee 033e bfd1 07bf
000003e0: 9ba2 543e 5490 1e3e bd81 1f3e 4881 95be
000003f0: 0ee1 ea3b 82aa 6b3e d5b4 0cbe 3584 bebd
0.16814828 -0.50829405 -0.19467144 -0.38400736 -0.34663054 -0.50535023 0.18840227 -0.16022258
-0.006350193 -0.09415761 -0.39715478 -0.5936334 0.08598886 -0.022591813 -0.37819836 -0.47415537
-0.17024583 0.13721724 -0.43545312 0.258097 -0.1363698 0.18038765 -0.015026515 0.28650892
0.08534262 0.34949717 0.3866905 -0.4676705 -0.19012532 0.24251837 -0.18050928 -0.35784736
-0.6919175 0.20552568 -0.25113112 0.0010260228 -0.21902189 -0.042894594 -0.39594647 0.3280742
-0.21673608 0.09329904 -0.40090916 0.0917528 0.2928526 -0.35748446 0.048951194 -0.38216087
-0.046346776 -0.42105845 -0.26510647 0.11153762 -0.27911648 0.20988366 -0.4994154 -0.5744912
-0.22915037 -0.21939139 -0.29316846 -0.35618344 -0.41870382 0.13945252 0.34166455 0.35846332
-0.6646569 -0.10833054 0.18178807 0.24523771 -0.505597 0.08912308 0.16252755 -0.6392535
-0.4444166 -0.5009072 -0.49786222 -0.39385122 -0.0031718232 -0.2959207 -0.35473454 0.28800225
0.17600013 0.1952906 -0.28063235 -0.38955832 0.34260395 0.12685584 -0.20937875 0.0035939666
0.0033248179 0.17257765 0.23311318 0.15232718 -0.24617438 -0.08877916 -0.22045232 -0.06659492
-0.0070692375 -0.23959269 0.19917879 0.26517996 -0.44263119 0.09254444 0.27362424 0.08253669
0.21215266 0.20827961 -0.3811722 0.04952371 0.20016135 0.28526902 -0.40556258 -0.21630482
-0.38130006 -0.008052903 -0.21597248 -0.06140353 0.19475517 0.0012194884 -0.3441075 0.19405282
0.07826507 0.24311443 0.015281136 0.26872048 -0.30194038 0.11532351 -0.45097893 0.18950394
-0.1190326 0.05244146 0.2207276 0.16801335 0.23374116 -0.2868193 0.013865376 -0.34962994
-0.21758507 0.20824517 -0.092982665 -0.67142576 0.10318214 -0.5238275 0.16616993 -0.25504652
0.107465506 -0.43438923 0.17075428 0.25342667 -0.022579858 -0.18491672 -0.17019379 0.27174327
-0.28447342 0.07809329 0.27113196 -0.12202282 -0.15403092 -0.19990052 -0.06715287 -0.47652644
-0.3551895 -0.5054085 -0.3145328 0.21722184 -0.13362801 -0.25073683 0.092196524 -0.5732261
0.0005618365 0.3131211 -0.37470052 -0.10471749 -0.26298755 -0.10747093 -0.14653945 0.14997643
-0.26298735 -0.03919858 -0.56520635 0.15464413 -0.3153744 0.37347716 0.0468787 0.2354865
-0.04290227 -0.0719017 -0.28114468 -0.014813445 -0.20001973 0.21179456 0.030191153 -0.18795204
-0.38819894 -0.04534486 -0.43080926 0.1933835 -0.73018944 -0.5796734 -0.28546914 -0.13124996
0.0867517 -0.5789682 0.22137794 0.1874502 -0.55385876 -0.16410677 -0.15651876 0.09032609
-0.1034207 -0.16195785 -0.3838819 0.036007185 0.21376413 0.093808964 -0.11562353 0.24602486
0.19288531 -0.3058491 -0.11376805 -0.38710704 -0.15344097 0.1975654 -0.3572557 0.09115176
-0.0598761 0.19879477 0.11357257 -0.16788998 -0.36547026 -0.14654909 0.31362537 0.13937564
-0.4527416 -0.2789248 -0.07486256 0.17573008 0.22186649 0.28310955 -0.42731133 0.1452367
0.32067028 0.29763913 -0.15171267 0.42863268 -0.08349588 -0.41909754 0.12884133 -0.5305442
0.20765154 0.15484744 0.15576835 -0.29200196 0.007167942 0.23014262 -0.13740857 -0.0930256

sequential/conv2d/Conv2D f4 [6, 5, 5, 1]
00000000: 82a5 153d d648 6a3e bb76 86bd d014 04be
00000010: 299c 34bd d65e 113e 271b 923e 7c31 7e3e
00000020: d395 8e3d 3788 d0be 4bc9 163e 2767 fa3d
00000030: 6ae4 523e eddb 53be 5f0f 2dbe a700 723c
00000040: 03c1 523e 8d99 103e d971 89bd bb3f bcbe
00000050: 3163 df3c 27a0 8d3c abee b8bc 10f4 c7bb
00000060: 770e b5be db65 58be 3234 febd a450 dfbe
00000070: c446 babe dac9 98be 6930 27be bd09 83be
00000080: 5357 5c3c 9aac 60be ab61 eabd 100b 0b3e
00000090: bbad 8c3e 62f1 803e 3c87 6b3d 13df 023e
000000a0: 5fc6 813e 4886 4b3e b0ef 943e def6 273e
000000b0: b0b5 863e cc9b 6e3d 743a c9bd 038b 4abd
000000c0: 5905 253e 7bf9 a63d 7408 6a3e b215 703e
000000d0: 44f9 913e 6533 683e abbd c93c 63b7 f63c
000000e0: fc3a 493e 78f2 a33e ab64 a83d 17b6 c1bd
000000f0: c111 7bbe b114 023e 39d2 e23d 40d6 24bd
00000100: 47a3 87be 7f83 a1be d2e0 d3bd 248d 7fbe
00000110: 19df dbbd 9547 333d 2c44 7bbe d4ca cabc
00000120: 967d 67bd ea94 9f3b d3ea f8bd 213c b13c
00000130: e906 35be a445 22be dd25 3e3d 8962 603d
00000140: 0065 4b3e a92f 423e db3b 2c3e 23d7 39bd
00000150: 9867 6bbe b3bf 883e a42f 223e 25ce b6bd
00000160: b9eb 95be 1a9b 78be b79e 393e 0adf 023c
00000170: 267b 4fbe 05e9 67be 2574 bc3c c79d 493d
00000180: 1717 283b ea26 a43d 4ae1 443e 49e1 e43d
00000190: 274f b1be 3f78 f0bd 6421 fdbd 849b 39bc
000001a0: 09e4 b6bd f43d 72be 7c18 efbd 0bdb a43c
000001b0: 182d d33c 9247 8c3e f9f4 17bc 09b1 113e
000001c0: 9eb3 2f3e 4133 533e 51de 2c3e 2a75 2ebe
000001d0: 94fd 823d 01de 1c3e ca03 c03d 27e0 7abd
000001e0: edd4 ba3b 30b6 343e 4312 f0bc e201 da3b
000001f0: 066f cfbd aee5 bebc 2c44 b43d 177e 533e
00000200: f2a1 39bb dfe7 8cbb 5e16 d93d 5332 48be
00000210: 6061 23be e34f 82bd 78ce e4bd 3f06 da3d
00000220: 8437 02bd 4d93 44be 0e5f 203e c402 3f3e
00000230: b7e4 82bd 66ec c3bd 33c4 ebbb 34f1 85bd
00000240: 571b 15be ac6d b83d c65d 2d3e f4c9 dabb
00000250: 580d b9bd c506 2bbe
0.036534794 0.22879347 -0.06565615 -0.12898564 -0.04409424 0.14196333 0.2853634 0.24823564
0.069621705 -0.40728924 0.14725225 0.12226706 0.20594946 -0.20689364 -0.16900395 0.014770663
0.2058144 0.14121075 -0.06711168 -0.36767372 0.027268978 0.01728828 -0.022574743 -0.0061020926
-0.35362598 -0.21132605 -0.12412299 -0.4361621 -0.36382115 -0.298415 -0.16327061 -0.25593367
0.013448554 -0.21940842 -0.1144441 0.13578439 0.27476296 0.2518416 0.057502016 0.12780409
0.25346658 0.19875443 0.29089117 0.16402766 0.26310492 0.05825405 -0.09825602 -0.04944898
0.16115321 0.081530534 0.22854787 0.23445776 0.28510487 0.22675855 0.024626574 0.030116742
0.19651407 0.32020926 0.08222326 -0.09458559 -0.24518491 0.12703206 0.11075253 -0.040243387
-0.26491758 -0.31545636 -0.103456154 -0.24956185 -0.10735912 0.043769438 -0.24537724 -0.02475492
-0.056516252 0.004870047 -0.12154164 0.021635117 -0.17678417 -0.15846878 0.046422828 0.05478147
0.19862747 0.18963493 0.16819708 -0.045371186 -0.22988737 0.26708755 0.15838486 -0.08926038
-0.29281405 -0.24277917 0.18126951 0.007987747 -0.20261821 -0.22647484 0.0230046 0.049222734
0.0025648528 0.08015235 0.19226566 0.11175782 -0.346307 -0.11741685 -0.123598844 -0.011328582
-0.08930213 -0.23656446 -0.11674592 0.02012398 0.025778338 0.27398354 -0.009274715 0.1422769
0.17158362 0.2062502 0.16881682 -0.17036882 0.063960224 0.15319063 0.09375723 -0.061248925
0.0057016523 0.17647624 -0.029305583 0.0066530565 -0.10128598 -0.02330288 0.08802065 0.20653568
-0.0028325287 -0.004300102 0.10599969 -0.19550447 -0.15955114 -0.063628934 -0.11172193 0.106457226
-0.031791225 -0.19196816 0.1566126 0.18653399 -0.0639128 -0.09566574 -0.0071950196 -0.065401465
-0.1456121 0.09005293 0.16930303 -0.0066769067 -0.09035748 -0.16701801

sequential/conv2d_1/Conv2D f4 [16, 5, 5, 6]
00000000: 8c5a b83d 2319 28be 4e52 213d df1e d53c
00000010: 3236 9fbc ddf5 453d 6643 0b3d 61d5 31be
00000020: 2bc0 263c 6f2f 54bd 987e 8bbd fca3 a8bc
00000030: 91d3 36bc c6d8 54be c66b 903b ba89 013d
00000040: b7af 61bd c9aa 7e3d 9a61 63bc f1d5 f1bd
00000050: 9d6a 713d 6353 3a3d 69a7 08bd b2d5 f93d
00000060: 4f81 dbbd dc54 723c 953a c0bc dbac 3abd
00000070: f07c 92bd a592 c2bc 687b dfbc 256d 11be
00000080: f838 b73d d729 eb3c 0932 5fbd 6d73 2d3d
00000090: 3743 023e c68d 35be ebea 20bc 474a 8e3d
000000a0: de09 a63c 9ac9 d53d 3aee 423a 13df dfbc
000000b0: 494f 6dbd 4561 1c3e 40f7 173e bac8 a93d
000000c0: aa8d 6bba 678f f239 51d0 89bd 9a15 42bd
000000d0: 083e 863d 7bb1 96bd 7581 14be c5c5 a53d
000000e0: 6c20 9f3d e679 43bd f89f 7a3c 55c3 713d
000000f0: 5187 6c3c 7d81 34be 72d8 613d 1ae3 b33d
00000100: 027e a2bd 9fca 173e 01ba b1bd fbf1 85bc
00000110: 46cb 64bd 51c6 ccbd 3ffd ac3d c557 f73d
00000120: 50a2 19bc 0496 bd3d 876a 56bd d325 f43c
00000130: 9c5b c0bc 3c9d 223d 60b6 5fbe 8316 743e
00000140: c092 293c fd8c 74be 21dd 013e 7040 b13d
00000150: ce00 e7bc 39c3 3e3e a5de c8bd 0711 dfbd
00000160: 73f8 ab3d 2423 bb3d 0126 bc3d c5bf 1dbe
00000170: 3748 8fbc 727c 013c 545c 0a3d e009 8f3c
00000180: 6b26 a4bd dc7a 9abd 93fb e83c c026 96bd
00000190: 45ea 6ebd cc52 4a3d 80fa 84be 9427 27be
000001a0: 48d5 603d 512e fbbd 2ac5 b4bd d628 513d
000001b0: cea5 8dbe 07ea e3bd 1e27 e33d 90da d7bd
000001c0: f353 44bd 152b 3d3d 2fb1 1cbe cdb4 a6bc
000001d0: be80 583e 616c 5bbe 36aa b7bc 6d06 0d3e
000001e0: e3b7 41bc 0514 763d a8e2 0ebe 261e 60bc
000001f0: cc6f 07be 082e 393d 914d 06bd 44c9 c13d
00000200: 3407 64be 64c3 62bd 5aff 67be bce5 013e
00000210: 877b 8fbe 5d15 643d 8a4c 13be 898c 1bbe
00000220: 90e1 3dbe 031f 173d 9b8d cfbe 8c46 b33d
00000230: 1e39 90bd f68e 843d 1825 e2bd f6a3 073e
00000240: 9fbc 91be 297e d43c 90eb a6bd 5b6f 22bd
00000250: 9e05 7cbe 7767 1cbd 08df 77be 5f6a c0bd
00000260: 3f19 6cbd 2c1f 2c3e d62e 243e 1cd2 35bc
00000270: 6537 b03d a9b3 3dbe c669 373b 21da 4d3e
00000280: c77c da3d c1d3 0cbe aa91 8f3d 9bb6 b7bd
00000290: cd2d f1bc 1df5 7c3e 6ff6 353e f8f6 f3bd
000002a0: f891 20bd 8f2e 403c 4218 233d 9039 67bd
000002b0: 4dd0 8b3d 845c 1cbe 8d30 013d 7cc2 283e
000002c0: cbac 76bd 732a 073e 077a b4bd 987f ac3c
000002d0: 7601 bb3c 3c29 fabe 242f 39be e0db e9bd
000002e0: ead0 d93d 2070 113e 3e68 0abd 7535 c4be
000002f0: 85c1 ad3c ccf6 a5bd b0b1 0abe 89cc 02be
00000300: 6194 0abe 765e 053e 60aa 533a 7851 543e
00000310: 6dfe d8bd 89f1 58be 3ecb 16be 2fda 553c
00000320: 8051 e4bd 6494 613e 67fc 213e 8efc 13be
00000330: d5dd 253d 8872 73bd 0086 60bc 2a98 1a3e
00000340: 4a2e 8dbb 9aa5 633d 8d5e 15be 9610 013d
00000350: 4cef 31be 0512 083e 3211 e33d ed61 073e
00000360: ba2c 18be c1b6 0bbf fff0 6a3d 48ac fbbd
00000370: 1f10 aabd edfd 57bd d18f 08bd ac9d ecbe
00000380: 3753 0e3e 8f04 d7be 4904 6abe 019c 303c
00000390: 4d0c a73c 7842 6e3d 605d 203e 963b 173d
000003a0: cccd 30be 2e22 87bc 476a 20bc e35b 143e
000003b0: b064 48be 7e56 db3c f02b e6bd 6410 17bd
000003c0: ac60 61bd c15f 723d 878f 803d 8970 213e
000003d0: 03ea 6ebd a5db e23c ee71 86be 850a bf3d
000003e0: 90e5 64be f120 0c3e 12ee 9b3b 7903 e03c
000003f0: 6b26 61be b675 07be 6694 ecbc 45d9 0abc
0.090016454 -0.16415839 0.039385132 0.026015697 -0.019435022 0.048330177 0.033999823 -0.17366554
0.010177652 -0.05180305 -0.06811255 -0.020586006 -0.01115884 -0.20785818 0.004407379 0.031625487
-0.055099215 0.062174592 -0.0138782505 -0.11808384 0.058939565 0.04548968 -0.03336278 0.12198962
-0.10718023 0.01479074 -0.023465434 -0.045575004 -0.07152736 -0.023751566 -0.027280524 -0.14201792
0.08946413 0.028706474 -0.054491077 0.042346407 0.12720953 -0.17729864 -0.009821634 0.06947761
0.020268377 0.10438843 0.0007436011 -0.02732805 -0.05793694 0.1527148 0.14840412 0.08290239
-0.0008985648 0.0004626468 -0.06729186 -0.047383882 0.065548 -0.073580705 -0.14502509 0.08094362
0.07769856 -0.047723673 0.015296929 0.059024174 0.014436559 -0.17627521 0.05513806 0.087835506
-0.0793419 0.14823388 -0.086780556 -0.016350737 -0.05585792 -0.09998763 0.0844674 0.120772876
-0.009377077 0.09257129 -0.052347686 0.029803192 -0.023481183 0.03970073 -0.21846914 0.23836713
0.010349929 -0.23881908 0.1268201 0.086548686 -0.028198626 0.18629159 -0.09808091 -0.108919196
0.08396997 0.09137562 0.09186936 -0.15405186 -0.01749049 0.007903205 0.033779457 0.017460763
-0.0801514 -0.07542965 0.028440272 -0.0733161 -0.058328886 0.049395368 -0.25972366 -0.16323692
0.0548909 -0.122646935 -0.088266686 0.051064335 -0.2766556 -0.111286215 0.110914454 -0.10539734
-0.047931623 0.046183664 -0.15301965 -0.020349884 0.21142861 -0.21428062 -0.02242003 0.13771982
-0.011823627 0.060077686 -0.1395365 -0.013679063 -0.13226241 0.045209914 -0.032788817 0.094622165
-0.22268373 -0.05536212 -0.22656003 0.12685293 -0.2802393 0.055684436 -0.14384666 -0.15190329
-0.18543077 0.03689481 -0.40537724 0.0875369 -0.07042144 0.0647258 -0.11042231 0.1324614
-0.2846422 0.025939064 -0.08150399 -0.039656978 -0.24611518 -0.03818461 -0.24206173 -0.09395289
-0.057641264 0.16808766 0.16033491 -0.011097457 0.08604316 -0.18525566 0.002798663 0.20102741
0.10668331 -0.13752653 0.07010205 -0.08970376 -0.029440785 0.24702878 0.17769788 -0.1191234
-0.039201707 0.01172985 0.039818056 -0.05645138 0.068268396 -0.15269667 0.031540442 0.1648044
-0.060223382 0.13199787 -0.08812337 0.021056935 0.022827845 -0.48859584 -0.18084389 -0.11418891
0.1063555 0.14202929 -0.03379082 -0.38322034 0.021210441 -0.081037134 -0.13544345 -0.12773336
-0.13533165 0.13024315 0.0008074399 0.20734203 -0.10595403 -0.21185888 -0.14725968 0.013052507
-0.111483574 0.22029263 0.1581894 -0.1445181 0.04049476 -0.059435397 -0.013703823 0.15097108
-0.0043084966 0.05557785 -0.1458685 0.03150996 -0.17376441 0.13288124 0.11087264 0.1322095
-0.14860812 -0.54575735 0.057358738 -0.122887194 -0.08303856 -0.052732397 -0.03334028 -0.46214044
0.13898931 -0.41995665 -0.22853197 0.010779382 0.020391608 0.05816886 0.1566062 0.03692206
-0.17266005 -0.01649579 -0.0097909635 0.14488177 -0.19569659 0.026774641 -0.11238849 -0.036880866
-0.055023834 0.05917335 0.06277376 0.15765585 -0.05832864 0.027692625 -0.26258796 0.09328178
-0.22353196 0.13684441 0.004758605 0.027345406 -0.21987312 -0.13228497 -0.028879356 -0.008474653

std.constant f4 [6]
00000000: 46b8 103d 1824 2d3d e69b 163d 4bd0 743d
00000010: 3de4 203d 9d14 ffbd
0.035331987 0.04227075 0.03676977 0.059768956 0.039280165 -0.124551035

std.constant1 f4 [16]
00000000: 03a0 303b 14f2 2a3e 2463 6a3d 1741 8f3d
00000010: 27cb 323d 10e1 323d 5060 7f3d 2682 d33b
00000020: 7e3a 4a3d d21a 963d 279b 383d dcca 973c
00000030: fb02 4ebc 66a5 a53c 47db 3b3d 5d1d dabb
0.0026950843 0.16693908 0.057223454 0.06994837 0.043650772 0.043671668 0.06234771 0.006454724
0.04937219 0.07329334 0.04506984 0.018529348 -0.012573953 0.02022047 0.045863416 -0.0066563324
