Mobile detection/Flooding_example/flood_classifier.tflite (tflite, 216700 bytes, 11 tensors)

sequential/dense/BiasAdd/ReadVariableOp f4 [128]
000000 5d 2e 45 bb 6f 55 03 bc e8 a1 41 3a 8b fd bd 3b
       -0.003008745 -0.008015974 0.00073864916 0.005798047
000010 1c 0e 34 bb 00 00 00 00 36 dc 28 39 00 00 00 00
       -0.002747423 0.0 0.00016103763 0.0
000020 c2 aa 26 bc 02 eb e2 b8 67 38 8d 38 d4 08 39 bc
       -0.010172548 -0.000108202934 6.73391e-05 -0.011293609
000030 00 00 00 00 00 00 00 00 07 3c 15 3a e9 a7 6c bb
       0.0 0.0 0.00056928437 -0.0036110824
000040 05 f8 7c bb ae 1d 26 bc 72 59 a2 3b 21 32 10 3c
       -0.003859998 -0.010138912 0.0049545104 0.008801014
000050 5c bd a2 bc 3d 78 78 3b 64 c4 51 3c 06 22 bb 3b
       -0.019865684 0.0037913464 0.012803171 0.005710843
000060 d9 7b 33 3c bb 8d 22 3c 36 0f 31 3b 37 33 83 3c
       0.010954821 0.0099214865 0.0027017123 0.016015632
000070 00 00 00 00 0a 51 a8 3b 23 49 7d 3a 5f 34 70 bc
       0.0 0.0051366137 0.00096620823 -0.014660924
000080 1f cd 51 bc 9d 91 ec 39 b5 b3 b0 3b ce 23 63 bb
       -0.012805252 0.00045121918 0.0053925165 -0.0034658792
000090 71 2f 9c 3b fd 70 8e bb 00 00 00 00 be c7 c8 3c
       0.0047663976 -0.0043469653 0.0 0.024509307
0000a0 00 00 00 00 4c d4 a9 3b 30 82 c0 3b 72 48 39 bc
       0.0 0.0051827785 0.0058748946 -0.011308776
0000b0 00 00 00 00 2b c0 03 ba 7e 94 ea 3a af cd 16 3c
       0.0 -0.00050258887 0.0017897037 0.009204312
0000c0 bb 84 d6 b9 f3 e7 10 b9 00 00 00 00 82 a1 d3 3c
       -0.00040916153 -0.00013819318 0.0 0.025833849
0000d0 1a e5 56 37 d4 22 45 3b dd d9 17 bc 53 ac 35 3c
       1.2808736e-05 0.0030080574 -0.009268251 0.011088449
0000e0 c5 11 28 3b a2 34 d9 ba 0d 02 94 ba f4 df 50 bb
       0.0025645357 -0.0016571472 -0.0011292115 -0.0031871768
0000f0 a2 72 9e 39 89 aa 5e bc 0e 57 fe bb b7 c4 ac 3b
       0.00030221516 -0.013590463 -0.0077618426 0.0052724737
000100 20 47 40 bc a2 23 9f 3a cd cb 11 bb 33 1f bf ba
       -0.0117357075 0.0012141357 -0.002224672 -0.0014581442
000110 00 00 00 00 0f 94 bc 3b e7 51 a3 3b 36 eb da bb
       0.0 0.0057549546 0.0049841288 -0.0066808714
000120 00 00 00 00 15 da 6c ba d4 06 67 bb 00 00 00 00
       0.0 -0.00090351823 -0.0035251873 0.0
000130 00 00 00 00 1f e3 6c bb a7 d6 d2 ba 05 e9 f1 37
       0.0 -0.0036146117 -0.00160857 2.8837947e-05
000140 e5 11 35 3a 00 00 00 00 e1 9d 8d 37 d0 10 9d ba
       0.00069072685 0.0 1.6882028e-05 -0.001198316
000150 00 00 00 00 33 59 e6 3b f5 d7 ff bb aa c7 fd 3a
       0.0 0.0070296763 -0.0078077265 0.0019361873
000160 00 00 00 00 3f 2a b6 bb a1 cf bc 37 70 0c 32 3c
       0.0 -0.0055592353 2.2508031e-05 0.010867223
000170 cb d2 7e bb 51 73 36 3c 32 d9 77 bc be e0 db 3b
       -0.0038882967 0.011135892 -0.015127467 0.006710141
000180 49 5a 40 3a e2 4d 54 3a 88 72 c9 ba cb fd fc ba
       0.0007337672 0.00080987636 -0.0015369216 -0.001930171
000190 1b a7 8b bb c0 52 46 3c c1 2c 58 3b 7d c1 8c 3c
       -0.004261864 0.01210469 0.003298566 0.017182106
0001a0 7e 8b b1 3b 1e 52 8b 3b 1c c4 e9 37 16 1e 0a 3c
       0.00541824 0.0042517325 2.7867085e-05 0.008430025
0001b0 02 13 73 b9 02 75 01 bb e0 2b 84 39 e8 4a 23 3b
       -0.00023181367 -0.001975358 0.0002520969 0.0024916474
0001c0 7e 44 f9 ba 7e 7b d5 b7 37 a9 68 bb 6b 24 82 3c
       -0.0019017605 -2.5449084e-05 -0.003550125 0.015886506
0001d0 00 00 00 00 3e 78 59 3a 6a e6 ab bb 35 56 0c bb
       0.0 0.00082958105 -0.0052459734 -0.0021413688
0001e0 0e 41 c7 b9 a9 f8 f2 3b 0d 74 9a b7 c6 59 76 39
       -0.00038004707 0.0074148965 -1.8412271e-05 0.00023493831
0001f0 c5 f3 18 bb 00 00 00 00 e6 5a f9 bb 00 00 00 00
       -0.0023338657 0.0 -0.007609713 0.0

sequential/dense_1/BiasAdd/ReadVariableOp f4 [10]
000000 e6 d3 4f 3d 7b f6 32 bc 01 3c 12 ba 13 61 33 3d
       0.05073919 -0.010923023 -0.0005578399 0.04379375
000010 ea dd 85 bc 62 c6 ff b9 83 24 88 bc 52 ac 0e ba
       -0.016341168 -0.00048785197 -0.016618973 -0.0005442548
000020 65 69 dd bb 1b bd 31 3c
       -0.006756949 0.010848309

sequential/dense/MatMul f4 [128, 288]
000000 b3 f3 94 bd 40 3d 89 bd 93 e4 37 bd ed e4 d8 bd
       -0.072730444 -0.06701136 -0.04489572 -0.10590539
000010 34 a7 b4 3d f5 5b 8b bb 5b da 81 bd 9c b0 fd 3b
       0.08820954 -0.0042529055 -0.06340476 0.0077420007
000020 68 f5 94 bd be 1c c3 bd d3 af 58 3d b3 d3 bd 3d
       -0.0727337 -0.095269665 0.052902054 0.09268894
000030 44 73 94 3c 72 0b f1 3d 98 63 25 bc 40 2f 19 bd
       0.01812137 0.11769761 -0.010094546 -0.037398577
000040 76 6a 2a bd cc 7d 3b 3d 7a 2a ba 3d 45 72 e5 bd
       -0.041605435 0.045774266 0.09090133 -0.11203436
000050 76 11 d1 bd 3d 94 56 bd 0d 0f ec 3d 2d 1e 4f 3d
       -0.102084085 -0.052387465 0.11526308 0.050565887
000060 ef 83 94 bc f5 eb ef bb ef 43 81 bd 9b 8e 6d bc
       -0.018129317 -0.0073218294 -0.063117854 -0.014499332
000070 2e cb 03 3d e4 c6 8b bd 67 8f 3e bd 90 87 b8 bd
       0.03217619 -0.06825045 -0.046523478 -0.090102315
000080 13 c8 8f 3c 96 5c e0 3d e1 8c 42 bd 31 7d 9b bd
       0.017551458 0.10955159 -0.047497634 -0.07592238
000090 9d a0 b9 3c 9a ca da 3d 64 c5 38 bd 19 3f ca 3d
       0.022659594 0.106831744 -0.04511012 0.09875316
0000a0 18 57 d1 bd 4f 56 98 3d 17 cb 02 3d 58 56 d2 bc
       -0.1022169 0.07438337 0.031931963 -0.025675938
0000b0 0c 96 a1 bd 94 0f 1f 3d c5 d9 59 3d 73 81 a2 3c
       -0.07889947 0.038833216 0.053186197 0.019837117
0000c0 1e f1 4e 3b 29 b8 09 3d 2a 32 1a 3c 38 44 a6 3c
       0.0031576823 0.033622894 0.009411374 0.020296201
0000d0 24 bc b8 3d ab 72 9d bd 72 41 c9 3d b3 69 16 bc
       0.0902026 -0.07687887 0.09826936 -0.009180474
0000e0 f4 d8 3a 3c 04 c7 59 3d 7f f1 00 bd 7c ec b8 bd
       0.011404265 0.05316831 -0.03148031 -0.09029481
0000f0 dd 7b ed 3c ce a5 b3 3c 9e 10 f5 3d 52 97 54 bd
       0.028989727 0.021929648 0.1196606 -0.051902123
000100 01 65 68 bb 21 3e 2a 3c 3d 74 e4 bb 38 2d 88 bd
       -0.0035460594 0.010390789 -0.0069718645 -0.0664925
000110 eb fc c2 3d e0 05 d3 3d d4 92 b8 bd 5a 39 9d 3d
       0.095208965 0.10303855 -0.0901238 0.076769546
000120 60 6a 13 bd 6f d7 b0 3d aa 7e 07 bd 2c 76 88 bc
       -0.03599012 0.08634841 -0.03307978 -0.016657911
000130 7a b7 58 bd 9a 5c 4a 3d f9 20 c3 3d 92 4c ac bd
       -0.052909352 0.049404718 0.095277734 -0.08413042
000140 80 79 bd 3d 61 f4 16 bc ad f7 2a bd 85 03 b3 bd
       0.0925169 -0.009213538 -0.04174011 -0.08740906
000150 69 8f 13 bd a9 37 e4 bd ed 9d 50 bd a1 af 9c 3d
       -0.03602544 -0.11143429 -0.05093186 0.07650686
000160 ed ea df bd 1c 00 d1 3b dd 88 5c 3d e6 cc d7 3d
       -0.109334804 0.006378187 0.05384146 0.10537128
000170 3f b2 76 3c b6 65 93 3d 70 b4 7b bd de ea 0e bd
       0.015057146 0.07197134 -0.061451375 -0.034891956
000180 03 95 86 3c 49 fd dc bc ae 29 98 3c 7b 7a ae 3d
       0.016428476 -0.026976245 0.018574562 0.08519455
000190 04 6a a8 bd 41 ee 7c 3b a9 40 6e bc 9a 7b cb 3d
       -0.08223346 0.0038594159 -0.014541783 0.099356845
0001a0 54 fc 39 3d 70 9b 8e 3d f1 e0 cc 3d 4d 14 4b bc
       0.045406654 0.06963241 0.10003842 -0.012394977
0001b0 b8 9a 23 3d c0 7f 29 3b ba 41 8f 3d c8 70 9a 3d
       0.039942473 0.0025863498 0.06994958 0.075410426
0001c0 3d 6d 1c bd 05 03 f1 bd b6 1b a6 bc be 14 95 bd
       -0.038190115 -0.11768154 -0.020276885 -0.07279347
0001d0 38 3b 90 bd c1 e7 df 3d 5b 57 6c bc 3c 5e ca 3b
       -0.07042545 0.109328754 -0.014425124 0.0061757844
0001e0 d2 97 22 3c cc 08 91 39 e7 cd d4 bd d7 d7 21 3d
       0.009923892 0.0002766311 -0.10390835 0.03951248
0001f0 8e 51 d4 3d e4 8d 30 3c 5b b4 89 bd 5a 78 84 3c
       0.10367118 0.010776017 -0.06723853 0.01617067
000200 da 3b f1 3d 66 71 e9 3d f7 50 19 bd 8b 51 a6 3d
       0.11778994 0.11398582 -0.03743073 0.08121022
000210 a9 a3 0d 3d 62 ca b4 3d d4 f2 b3 3c ad e9 d1 bc
       0.034579907 0.08827664 0.021966375 -0.02562412
000220 6d 82 d5 3c c8 25 c2 3d e1 c4 32 3d ea 8d 9d 3d
       0.026063168 0.094798625 0.04364479 0.076930836
000230 34 dc 8b bd a2 ff d3 3d e1 9f 2b 3d 7c c0 1b 3d
       -0.0682911 0.103514925 0.04190052 0.038025364
000240 40 67 d7 3d a4 b0 8e bd 86 72 a2 3d 8b 6c da bc
       0.1051774 -0.06967285 0.07932 -0.026663085
000250 8f ff 9f bb 49 58 54 3d 55 27 ac bd ac 9c 6f bd
       -0.00488276 0.051842008 -0.084059395 -0.058499023
000260 57 f5 56 3d 1b 60 31 bd 00 d5 ab 3d 4e 4f c8 bc
       0.052480068 -0.043304544 0.08390236 -0.024451878
000270 c8 e1 af 3c 1b ca 08 3d ba 34 f2 bc 9e 29 f4 3d
       0.021469966 0.033395868 -0.029566158 0.11922
000280 e9 1d ea 3b 78 73 c6 3d 82 57 f3 3d 30 d5 be 3d
       0.007144679 0.09689993 0.11881925 0.09318006
000290 d6 0d b0 3c 24 7d d6 bd a7 e2 40 bd 1d 81 f2 bd
       0.021490972 -0.104730874 -0.047091153 -0.11841033
0002a0 dc 6f 73 3c a9 da b5 bd a4 15 45 ba 10 b1 42 bd
       0.014858212 -0.08879597 -0.00075181783 -0.04753214
0002b0 3f 09 96 3d f3 58 a9 bd 12 7c d0 bd 80 a0 53 3d
       0.07325982 -0.08268919 -0.101799145 0.051666737
0002c0 d2 c8 8e bd 85 29 8e bd 32 7b 76 bd af 19 72 3d
       -0.06971897 -0.06941513 -0.060176082 0.059106525
0002d0 7f f9 86 3d eb 27 1b bd 7d 6c a1 3d cf c5 1b 3c
       0.06590556 -0.037879866 0.078820206 0.00950761
0002e0 a7 63 dc 3d 9a bc be 3d 6e 13 c3 3d 79 3b d0 3d
       0.10761195 0.09313317 0.0952519 0.101675935
0002f0 4a 27 cc bd c5 64 73 bd 86 6c c5 3c 1c a1 dc bd
       -0.09968431 -0.059422273 0.0240996 -0.10772917
000300 a5 9b c2 3c 6e fa a8 bd 90 00 e4 3c 14 94 b2 3d
       0.023755858 -0.08250891 0.0278323 0.0871965
000310 cb a7 5e bc 5c 6d 10 3d 58 d1 2b bd 84 5c 48 3d
       -0.01358981 0.035260543 -0.041947693 0.048916355
000320 4b df dd bd 22 ca b8 bd 43 cc 5b bd 49 9b 76 3d
       -0.108336054 -0.09022929 -0.053661596 0.060206685
000330 a3 e9 58 3d 93 ba 97 bc 67 b5 97 bd c0 87 60 bd
       0.05295719 -0.018521583 -0.074076466 -0.05481696
000340 70 4d 0c bd 08 a2 25 bd 43 d2 ca 3c e2 93 a9 3d
       -0.034253538 -0.04043773 0.024758464 0.082801595
000350 a0 11 bc 3d e8 e8 c8 bd c7 b6 2f 3d 58 9e e2 3b
       0.09183049 -0.09810048 0.04289892 0.0069158487
000360 ca 1d 4c bd 4a 91 a7 3d 6b 9f 82 3c e2 5a e2 bd
       -0.049833097 0.081820086 0.015945157 -0.11052491
000370 fa a2 bf bd 02 fa 4a 3c a3 7d 22 bd 4f f2 24 3d
       -0.09357257 0.012388708 -0.039670598 0.040270146
000380 82 ca 9e bd bc 4b dd 3c 1b f6 44 bc fb 7c ec 3d
       -0.07753469 0.027013652 -0.012021567 0.11547276
000390 5b bc eb bc cf 48 70 3d 6c f0 9f 3d 2a f9 f2 3d
       -0.028776338 0.058663186 0.07809529 0.118639305
0003a0 ad a6 82 3c f4 99 c6 3d a9 5e 2e 3d 4b 61 84 3c
       0.015948618 0.09697333 0.042570744 0.016159674
0003b0 b7 cf 54 bc fd 9f 8a bd 19 23 49 b9 b2 41 b4 3d
       -0.012988976 -0.067687966 -0.00019181929 0.08801593
0003c0 b8 45 93 3d eb 28 a5 bd 4a 54 97 3d 97 41 b5 bd
       0.07191032 -0.08064445 0.07389124 -0.08850401
0003d0 b7 08 cb bc 98 a5 cf bd 2c 82 80 bd 8d 12 80 3c
       -0.024784429 -0.101390064 -0.06274828 0.015633846
0003e0 fc 86 65 3d 26 76 2b 3c fa c5 de bd c8 7f f0 3d
       0.056036934 0.0104651805 -0.10877605 0.11743122
0003f0 86 ce 83 3d c9 e8 8d 3d 5e f0 6a bd f1 f2 56 3c
       0.064358756 0.06929166 -0.05735814 0.013119445

sequential/dense_1/MatMul f4 [10, 128]
000000 48 33 c1 3d 3b 2a 3d be 58 be 49 3d 40 a3 b5 3d
       0.09433609 -0.18473141 0.04925379 0.08869028
000010 b9 97 b1 bd 74 7f 84 bd a7 b1 3e 3d 12 97 ea 3d
       -0.08671517 -0.06469622 0.04655614 0.114545956
000020 87 78 d7 3d 2d 05 00 be c0 1b 8a bd e9 93 57 be
       0.10521036 -0.12501974 -0.06743574 -0.21052517
000030 d3 0e 38 3e 06 7e 10 be 0d 97 70 3c b6 33 84 3d
       0.17974405 -0.14110574 0.014684451 0.064551756
000040 df 5e a6 3d 49 98 3c be c4 ff c4 3d c2 22 15 3e
       0.08123564 -0.18417467 0.09619096 0.1456404
000050 a8 81 dd bd b3 ee ed bb 16 8c ab bd 42 21 08 3e
       -0.108157456 -0.007261121 -0.08376329 0.13293937
000060 51 5e f8 3d da 83 34 3e d2 73 b9 bd f7 88 3e 3e
       0.121273644 0.17628422 -0.09055294 0.18606935
000070 74 0b 74 3d 84 cb 4a 3e a3 47 e7 bd 59 f9 16 bd
       0.059581235 0.19804198 -0.112929605 -0.03685889
000080 5a 61 3e be 92 f6 dc bd 80 da 26 3c 56 34 6a 3c
       -0.18591824 -0.10789217 0.01018393 0.014294704
000090 d2 d9 0d 3e d5 06 0b 3e 6a 19 92 bd 33 51 3e 3e
       0.13852623 0.13576825 -0.071337536 0.18585663
0000a0 83 ca 11 3e 5c 66 71 3d 23 49 3f be 4d ad 3f be
       0.14237408 0.058935508 -0.18680243 -0.18718453
0000b0 a2 2e fa bd ae c0 d0 bd 67 29 cc bc 38 e0 dc bd
       -0.12215926 -0.10193001 -0.024922086 -0.10784954
0000c0 32 63 58 bd 64 cf 04 3e c0 1e 32 be 6d 88 dd 3d
       -0.052828975 0.12969738 -0.17394543 0.10817037
0000d0 79 2b 9c 3d 98 e0 f1 bd 71 ec bd 3c 41 92 11 3e
       0.07625479 -0.11810416 0.023184033 0.14215948
0000e0 d0 bc 5e 3e c0 f4 62 3d 5c 3e 31 3e af 05 05 3e
       0.21751714 0.055409193 0.17308944 0.1299045
0000f0 c8 62 41 3e 2e 61 4e be 24 d5 b2 bd 49 5e 39 3e
       0.18885338 -0.20154259 -0.087320596 0.18102373
000100 01 56 45 be ae 87 0a bd d3 47 8a bd 13 22 10 3d
       -0.19271089 -0.0338208 -0.06751981 0.035188746
000110 75 b2 39 be c4 87 8b 3b 47 cf 47 3d 82 84 19 3e
       -0.18134482 0.004258128 0.04878166 0.14991954
000120 00 29 87 3c b2 a2 43 be c6 0a 46 3e a0 c8 f8 bc
       0.016499043 -0.19105032 0.19340047 -0.030369103
000130 11 84 2f be db c9 41 3d 55 8b 62 bd b0 0b be 3d
       -0.17140223 0.047311645 -0.05530866 0.09279573
000140 35 75 c1 bd d3 fc 3a 3e 28 94 ad 3d cd 1e 46 be
       -0.094461836 0.18260507 0.08475524 -0.19347687
000150 f9 03 fc bd 38 0e 44 3d 48 30 dc 3b dc 0e 24 bd
       -0.12305445 0.047865123 0.0067196228 -0.040053234
000160 1b e0 35 3e 29 c4 e2 bd 00 d9 c4 3d b5 66 63 3e
       0.1776127 -0.11072571 0.09611702 0.22207148
000170 83 90 36 bd f9 f8 3e 3e b1 22 4e be 82 57 4d 3e
       -0.04457141 0.18649663 -0.20130421 0.20052913
000180 4a 11 3c 3e 6f 59 9b 3d c9 df 80 3c 74 9b b7 bd
       0.1836597 0.075854175 0.01573171 -0.08965197
000190 5a 4f dc bd e1 81 34 3e 64 7a 5c 3e bc e1 2c 3e
       -0.107573226 0.1762767 0.21531063 0.16882986
0001a0 a8 7d ec bd 32 fa 25 bd 7e c4 2e 3e d7 72 7a 3d
       -0.115474045 -0.040521808 0.17067143 0.061144676
0001b0 57 f1 42 bd 8c 23 56 bd 87 bf 32 3e 24 38 69 3c
       -0.04759344 -0.052279994 0.17455874 0.014234576
0001c0 a7 01 15 3c af dd 1b be 45 77 0a 3d 25 78 f5 3d
       0.009094632 -0.15221284 0.03380515 0.119858064
0001d0 98 67 ca bd e1 db 2b 3e 42 51 40 be 7e 8a bb bd
       -0.0988304 0.16783096 -0.18780997 -0.09157275
0001e0 a6 32 67 3e 1d 97 e5 3c be a6 c9 bd cc 89 16 3d
       0.22577915 0.028026158 -0.09846257 0.036752507
0001f0 dd b2 34 3e 68 a6 7d bd 3a 54 95 bc bf d6 34 3e
       0.17646356 -0.061926275 -0.018228639 0.17660044
000200 41 1f b5 bd b3 f2 0e 3e 39 4d 52 be b4 40 d2 3d
       -0.08843852 0.1395977 -0.2053727 0.102662474
000210 75 c3 fb 3d 46 26 ca 3d 09 3e 28 3e c7 e8 15 be
       0.1229314 0.09870581 0.16429915 -0.14639579
000220 b0 f3 1b 3e a3 32 0e be 7c 4c 73 3d 25 d0 32 be
       0.15229678 -0.13886504 0.059399113 -0.17462213
000230 90 6b f0 bd 6a de 95 3d 77 ad 2d be 21 4b 95 3d
       -0.11739266 0.07317813 -0.16960703 0.0728972
000240 fb 6a 29 bc c2 41 7d bd a6 8f f1 bc 3b 3f 94 3c
       -0.010340448 -0.06183029 -0.029487442 0.018096557
000250 8e d3 2e 3e fd 9d 48 3e 8b 05 0b bd 4c 8e 04 be
       0.17072889 0.19591518 -0.033940833 -0.12944907
000260 e4 4f c0 3d 5e 90 bf bd 30 fd 66 bd e0 cc 47 3e
       0.09390238 -0.09353708 -0.056393802 0.19511747
000270 e7 e8 04 3e 8a 54 16 be 93 98 f0 3d 35 d9 88 bc
       0.1297947 -0.14680687 0.11747851 -0.016705135
000280 fb 17 f0 bd ec 43 e1 bd fb b4 8f 3d 1c 00 83 3d
       -0.11723324 -0.10999283 0.07016941 0.06396505
000290 6d 75 d0 3d 28 aa ab bb e2 f3 54 be c6 dd 3d 3d
       0.10178647 -0.00523879 -0.20796159 0.046354078
0002a0 29 99 17 3e b0 7a 3f 3e 14 e9 4f be 2a c8 b4 3d
       0.1480452 0.18699145 -0.20303756 0.08827241
0002b0 5c d1 26 3d dc 81 e8 bd a5 fe 0b 3e e3 af 30 be
       0.040727004 -0.11352894 0.13671358 -0.17254595
0002c0 6d d3 db 3d 14 eb 24 3d 58 54 df bc d2 ad 01 3d
       0.10733686 0.04026325 -0.027261898 0.03165991
0002d0 f2 7e 1d 3c 58 d9 08 bd e4 b3 99 3d c1 40 04 be
       0.009612786 -0.0334104 0.075050145 -0.12915327
0002e0 3e f9 d4 3c 11 81 f1 3d e7 d9 25 be 90 27 11 3e
       0.025997754 0.117921956 -0.16196404 0.14175248
0002f0 ee 4a 8c bd 72 f7 18 be 23 29 4a be 1c 9f e9 3d
       -0.06850229 -0.14938143 -0.19742255 0.11407301
000300 fc 54 10 bd b8 b0 55 be 2e 70 b0 3c 7c 1c 0c 3e
       -0.035237297 -0.20868194 0.021537866 0.13682741
000310 64 13 5b bd 28 d5 2d 3e 34 bf 19 3e 43 83 34 bd
       -0.05348529 0.16975844 0.15014344 -0.044070493
000320 18 70 fb 3c da e2 b5 bd 4d 85 3e 3e 7a b8 c4 bd
       0.030693099 -0.08881159 0.18605538 -0.096054986
000330 b2 9a 84 3d f8 7b de 3d 74 da 30 3e f4 ee 10 be
       0.06474818 0.10863489 0.17270833 -0.14153653
000340 78 c9 7b bd 07 ac 17 3e 1f 1a 12 bd 37 55 ec bc
       -0.061471432 0.14811717 -0.035669442 -0.028849227
000350 3b a6 4e 3e 14 5f e5 bc 36 9a b8 3b 02 6f 37 3e
       0.201806 -0.027999438 0.0056336178 0.1791344
000360 7c ef 47 be 2a 40 69 bc f6 ae 04 3e 2a 7b 16 be
       -0.1952495 -0.014236489 0.12957367 -0.14695421
000370 8c 4e 05 bc b3 57 cd bd ce 0f b9 3d f1 82 39 3d
       -0.008136403 -0.10026493 0.09036218 0.04529089
000380 26 57 0b 3d f1 c9 31 3d 82 b0 e2 3d 0a 6a 0e be
       0.034018658 0.043405477 0.110688224 -0.13907638
000390 fc db 9c 3d b8 c6 b0 3d 20 6a c8 3d 33 93 d1 3d
       0.07659146 0.086316526 0.09785867 0.10233154
0003a0 e8 84 25 bd 76 10 00 be 98 fa 23 3e e8 42 1b be
       -0.040409952 -0.1250628 0.16013563 -0.15162241
0003b0 9a 25 0a be 91 e9 23 be 8c e1 c8 3c 84 28 0c be
       -0.13490906 -0.16007067 0.024521612 -0.1368733
0003c0 25 2f 87 3d 13 9f 08 3e ee f9 14 3e ff 8d 69 bc
       0.06600789 0.13341932 0.14548466 -0.014255046
0003d0 29 fe 1b 3e 8d ff 3d be c4 c2 7e bd a8 86 1f be
       0.15233673 -0.18554516 -0.06219746 -0.15578711
0003e0 76 8f 19 bd f1 ae d1 bd 03 45 15 be 8c 23 a9 3d
       -0.03749033 -0.102384456 -0.14577107 0.08258733
0003f0 75 80 ab bd 24 88 94 bd 99 1f 4b be d2 56 a7 3d
       -0.083741106 -0.07252529 -0.19836272 0.081708565

sequential/dense_2/MatMul f4 [1, 10]
000000 f8 9d 50 bf d4 dd 0d 3e 1c 98 1a 3e 48 ea 1c bf
       -0.8149104 0.13854152 0.15097088 -0.61294985
000010 b4 36 6e 3e fd 0e 63 3e 3f 53 b2 3e 69 51 63 be
       0.23263055 0.22173686 0.34829137 -0.22199024
000020 15 40 99 3e 76 ff f1 3e
       0.29931703 0.47265214

sequential/conv2d/Conv2D f4 [16, 5, 5, 3]
000000 02 5d 54 3d c5 d5 0d bd ad f8 ad 3b e0 a0 8d bd
       0.05184651 -0.034627695 0.0053091855 -0.0691545
000010 a6 09 de 3c a2 a7 d2 3c 96 ce 70 3d 16 45 69 bc
       0.02710421 0.0257147 0.058790766 -0.014237663
000020 6e 8c 73 3d 00 b8 98 ba 15 e2 8f bd 61 2f dc bd
       0.059460096 -0.0011651516 -0.070255436 -0.10751224
000030 1d df 3c bc ac 25 b9 bd 93 48 b1 3d 41 bd c0 bd
       -0.011527804 -0.090403885 0.086564206 -0.09411097
000040 8e 1c 75 bc e3 96 de bc 1f df 92 3c 24 a3 a3 3d
       -0.014960421 -0.027171558 0.017928658 0.07990101
000050 96 7f f6 bc 8c 4a cb bd f3 45 1d bc f7 6c b9 bd
       -0.030090135 -0.09926328 -0.009599197 -0.090539865
000060 62 7b 95 bc d3 08 5b 3d 32 44 58 bc 5b d2 4d bd
       -0.01824731 0.053475212 -0.013199853 -0.05024944
000070 3e 67 83 3d 95 7e 13 bd d5 89 f8 bc c4 53 47 bd
       0.06416176 -0.03600939 -0.030339161 -0.04866387
000080 3f a1 b3 bd 88 23 ae bc c4 76 a4 bd a3 22 54 3d
       -0.087709896 -0.021257177 -0.08030465 0.051790845
000090 a2 9c b6 bd 6d 24 e5 bd c0 d7 00 bd cb d8 c6 bd
       -0.08916594 -0.11188588 -0.031455755 -0.09709319
0000a0 03 90 f3 bb 52 7b 12 3d 77 70 56 3c f6 63 79 bc
       -0.007432939 0.03576214 0.013088337 -0.015221586
0000b0 2f 65 4b 3d 34 0d 66 3d 90 7e d2 bc 11 cb d5 bd
       0.049657043 0.056164935 -0.025695115 -0.104391225
0000c0 e2 6b 60 bd 85 61 af bb f1 24 93 3d c3 00 d6 bd
       -0.054790385 -0.0053522014 0.071847804 -0.10449364
0000d0 1e 40 d5 bc b6 58 33 bd 9b e7 6a bd 64 3b 19 bd
       -0.02603155 -0.043785773 -0.057349782 -0.037410155
0000e0 54 d0 08 bd f6 5f a1 3d ac ad 91 bd c8 da bd 3b
       -0.033401802 0.07879631 -0.071132034 0.005793903
0000f0 30 be 3b bd 85 65 b9 bc a6 b3 cc 3d d5 33 77 bd
       -0.045835674 -0.022631416 0.09995203 -0.060352165
000100 1c 00 62 bd 20 f3 c9 bd 3f a3 29 bd 3c 84 bd bd
       -0.055175886 -0.098608255 -0.04141545 -0.09253737
000110 3c 77 80 3a 4f da 3e 3c 1f 7c 29 3d 2f 0c 59 bd
       0.000980116 0.0116487285 0.041378137 -0.052990135
000120 fe da bd 3d da 73 59 bd 2a 69 e2 bd fc 07 3c 3d
       0.09270285 -0.053089 -0.11055215 0.045906052
000130 28 d7 15 bd 64 94 69 bd 2f 3a ee 3d ed 7a 66 bd
       -0.036582142 -0.057026282 0.116321914 -0.056269575
000140 23 9f 83 bc 14 5f d4 3d e0 b8 bd bd 14 a6 47 3d
       -0.016067093 0.10369697 -0.09263778 0.04874237
000150 d1 36 00 3e aa 5d 80 bd e9 0f b1 3d ea 92 f5 3d
       0.12520911 -0.06267865 0.08645613 0.11990912
000160 6e 14 4d 3d fa 20 da 3d 7c 3e a5 3d c6 55 9e 3d
       0.05006831 0.10650821 0.080685586 0.07731204
000170 63 df e9 3d 2b 94 93 bd 24 55 98 bd 6b 0f b9 3c
       0.11419561 -0.07205995 -0.07438114 0.02259036
000180 9f 3d 0e bc ac 95 07 3e c0 6d 4e bc 90 1c 07 3e
       -0.008681684 0.13240689 -0.012599409 0.1319449
000190 cd c2 6d 3d 0c f0 01 3e 2c a2 7e 3d bb 77 cb 3d
       0.058047105 0.12689227 0.062166378 0.09934946
0001a0 a6 4d d1 3d bb 9c d3 3c 31 8d e3 3d db 48 85 3d
       0.102198884 0.02583157 0.111109145 0.06508037
0001b0 31 fb 6a 3d d8 da 67 bc 57 1c b9 3c 29 66 07 bd
       0.05736846 -0.0141512975 0.022596521 -0.033056412
0001c0 0e f6 fc 3d ba 56 ee 3c cd 03 5b 3d 66 c2 81 bd
       0.12351619 0.029094089 0.05347042 -0.06335907
0001d0 22 6f be 3d f1 38 c6 3d 4d 07 32 3d 07 c1 0b 3e
       0.09298541 0.096788295 0.043463994 0.13647853
0001e0 0c 29 65 3d 9a a3 b1 3d eb da 8e 3d 62 97 96 bd
       0.05594735 0.08673783 0.06975349 -0.07353093
0001f0 a2 4d f9 3c 15 fb 1c 3d a7 fa ca 3c 01 1d e1 3c
       0.030432526 0.038325388 0.024777723 0.02747965
000200 88 c9 9a 3d b1 33 a1 ba 8f 34 03 3e 8d af 01 3d
       0.0755797 -0.001229873 0.12813018 0.03166156
000210 10 c9 35 3d 71 eb f7 3d 84 97 3e bd 8b 2d 7a bd
       0.0443812 0.12105454 -0.046531215 -0.06107859
000220 cf 86 ba 3d fb 87 8c 3d 32 b8 ea 3d 33 58 03 3e
       0.09107744 0.06861874 0.11460914 0.12826614
000230 f3 33 1f 3d f7 77 50 bd 32 84 a4 bd f5 52 e7 3c
       0.038867902 -0.050895657 -0.08033027 0.0282378
000240 4b 98 89 bc b7 32 68 bd cc 3b 6f 3c 8b e2 56 3d
       -0.016796252 -0.05668899 0.014601659 0.052462142
000250 a3 06 e6 bc c6 6e a2 bc 57 68 d5 bd 9f 2a 8d bc
       -0.028079337 -0.019828212 -0.10420292 -0.017232237
000260 53 65 6c bb 90 29 36 bd d3 53 b9 bd 91 65 dc 3d
       -0.0036071136 -0.04447323 -0.09049191 0.1076156
000270 3b fc a6 3d cc 52 72 3d 36 90 0b 3d 2f 9c e8 bb
       0.08153578 0.059160993 0.034073077 -0.0070986967
000280 03 11 4f bc e5 32 7f ba d0 fb 4a bd 49 0e 85 bd
       -0.012638333 -0.0009735062 -0.049556553 -0.06496865
000290 55 77 d5 bd 1e a3 94 3d 4a ec e5 bd ab f6 1a 3d
       -0.104231514 0.07257675 -0.11226709 0.037832897
0002a0 dd 12 80 3d 21 d5 72 bd 9a d5 24 bd 86 d7 6d bd
       0.06253598 -0.059285287 -0.04024277 -0.058066867
0002b0 4b 43 b5 bc a4 d4 89 3d 42 2c ad 3d 8c 09 35 3d
       -0.022126814 0.06730011 0.08455707 0.044198558
0002c0 25 88 77 3d 15 17 ab 3d 3c bf 65 3d 87 d3 3a 3d
       0.060432572 0.08354012 0.05609058 0.045611884
0002d0 c3 95 8b 3d 07 16 6e 3d 41 14 92 bd 85 6e f1 bb
       0.06815674 0.058126476 -0.071327694 -0.0073679113
0002e0 63 9f 85 bd 09 60 8f 3d d7 a8 2f 3d 9f 67 f3 3c
       -0.06524541 0.07000739 0.042885628 0.029712496
0002f0 a8 20 c9 3c 16 53 31 bd d5 37 cc bd 12 1b 9d bd
       0.024551705 -0.043292128 -0.099715866 -0.07671179
000300 7c 1c b4 bd ec 0b ea bc e3 90 66 bd 4e b7 d7 bb
       -0.087944955 -0.028570138 -0.05629052 -0.006583131
000310 15 b3 59 3d e1 39 be bd 49 2f 10 3d 00 7b 9d bd
       0.0531493 -0.09288383 0.035201345 -0.07689476
000320 18 1a 83 3d 73 71 f7 bb ee 9b 82 bb 05 96 cc 3c
       0.06401461 -0.007551366 -0.0039858734 0.024973879
000330 e3 53 a0 bd 3f 04 c0 bd fd 8e e1 bd a1 ca a9 3d
       -0.078285 -0.0937581 -0.11013601 0.082906015
000340 bb c2 56 bd 4f 0d 58 bd 09 d6 b6 3d be 63 5e bd
       -0.052431803 -0.052747067 0.08927543 -0.05429434
000350 3f 05 d8 3d cb 20 1f 3d e2 97 02 bd 62 90 11 bd
       0.105478756 0.038849633 -0.031883128 -0.035538085
000360 ec 08 13 3d 75 cf d9 3d 28 53 99 bd 05 f9 0c bd
       0.03589718 0.106352724 -0.07486564 -0.03441717
000370 91 bc e0 bc 47 ec 5d bd 7b 07 95 bd 33 f8 64 bc
       -0.027433665 -0.05418041 -0.072768174 -0.013975191
000380 4d 9c 49 3d a2 64 25 bc 34 4a a8 3d a1 28 2e 3d
       0.049221326 -0.0100947935 0.08217278 0.042519215
000390 98 91 cb bd ea e9 a2 3d 76 08 e6 bd f2 b0 3d 3d
       -0.09939879 0.07954772 -0.112320825 0.046311326
0003a0 54 c2 18 bd 37 47 e8 3c be 7c a3 bc 55 1b 97 3c
       -0.0372947 0.02835427 -0.019956943 0.01844565
0003b0 89 8c 01 3d f0 7d 61 bd 53 1e 44 3d 0f 4a a3 bc
       0.031628165 -0.055051744 0.047880482 -0.019932775
0003c0 2b 14 43 bd 51 a3 61 3c 10 71 e1 bd 0e 59 7b bd
       -0.047626656 0.013771848 -0.11007893 -0.061364226
0003d0 e4 4d 83 3d 96 47 3c 3d eb f6 76 bd d5 be 0e 3d
       0.06411341 0.045966707 -0.060294073 0.03484996
0003e0 5c 4c ef 3c 4e ac b7 3c 38 59 1a 3d 3b 2f d8 bd
       0.029211216 0.022421028 0.037682742 -0.105558835
0003f0 43 e4 ba ba 55 b9 a1 bc c6 44 bf bd 2a ab 10 bd
       -0.0014258701 -0.019741694 -0.09339289 -0.035319485

sequential/conv2d_1/Conv2D f4 [32, 3, 3, 16]
000000 80 9b 1f bb 42 7b 99 bc e2 fa 54 3d 34 9a ef bb
       -0.002435416 -0.018735532 0.051997073 -0.0073120836
000010 51 e6 9a bd b4 a6 d3 3d 6e 63 86 bb 91 49 b5 3d
       -0.075634606 0.103345305 -0.0041012084 0.08851922
000020 b6 4b 4b 37 55 08 5c bd 6d b9 cb 3c 6c 7c 3e 3d
       1.2117371e-05 -0.053718884 0.024868691 0.046505377
000030 65 34 5e bd 73 83 8d 3d 10 4e 11 3d 26 a1 ed 3d
       -0.054249186 0.069098376 0.035474837 0.11603002
000040 f1 53 da 3d d5 54 cf 3d 62 06 42 3d f8 e7 04 3d
       0.10660542 0.10123602 0.04736937 0.032447785
000050 a7 28 e8 3b 89 ce d4 bd 91 62 d1 bc 7c 90 ec bd
       0.0070849243 -0.10390956 -0.025559695 -0.11550996
000060 42 85 c9 ba 1a cd b1 bd 10 dd b2 3d 4a 91 c9 3d
       -0.0015374797 -0.08681698 0.087335706 0.09842165
000070 bc 62 9e 3d 7c b3 4d 3c 56 31 e3 3d 1b 38 66 bc
       0.07733676 0.012554999 0.110933945 -0.0140514625
000080 1c 0b cc bd 80 c2 ae bd 59 f5 a7 bd 64 b8 b2 bc
       -0.099630564 -0.08533192 -0.08201093 -0.02181644
000090 04 32 8b 3d d2 e2 9b bd a3 0e af 3d a1 f1 c7 bd
       0.06796649 -0.07611622 0.085477136 -0.09762884
0000a0 23 cb 42 3c c6 8d 28 3d a5 16 b3 bd 17 63 13 3c
       0.011889252 0.04115083 -0.087445535 0.008995793
0000b0 07 7f c3 3d 9a 82 79 3d 0d d0 da 3d a7 c4 ac bd
       0.09545713 0.060915567 0.10684214 -0.08435946
0000c0 e0 b3 ee bc 5a b1 82 3d b9 69 71 bd 67 0e 50 3c
       -0.029138505 0.063814834 -0.058938716 0.012698746
0000d0 1a 0f 8f bc ef a7 a8 bd 0b 15 98 3d be be 44 bd
       -0.017463256 -0.08235156 0.07425889 -0.04803347
0000e0 92 d3 6b bc d3 3e 4e 3d 03 58 b5 3d f2 2f 99 bd
       -0.014393704 0.050352883 0.088546775 -0.07479848
0000f0 80 ba a3 bd 0d eb 7e 3d f1 21 9b 3d 4a ad b1 bd
       -0.079945564 0.06223588 0.07574833 -0.086756304
000100 44 70 b0 3c c4 8e 2a 3b 2f 23 b8 3d 70 61 f1 bd
       0.021537907 0.0026025036 0.08991086 -0.11786163
000110 af 5b f1 3c f6 20 07 3d 4f e1 59 3d 32 ab 31 3d
       0.029462663 0.03299042 0.053193387 0.043376155
000120 4c 7a dc bd 59 51 bb bd 4c 7e 9d 3d 9f 97 f9 3c
       -0.10765514 -0.09146375 0.07690105 0.030467806
000130 0f 48 af 3d 67 2e 18 3d 16 ad 67 3d 72 2b dd bd
       0.08558666 0.037153628 0.056561552 -0.10799302
000140 c9 06 0c bd be 37 d2 bd bc 2a 5c bd d8 61 22 3c
       -0.03418616 -0.10264538 -0.053751692 0.009911023
000150 2c 58 ca 3d 6a 90 f3 3c ce da ae 3b 2f ea c7 3c
       0.09880099 0.029731948 0.005336142 0.02440366
000160 04 df 14 bc 26 6b 6d bc f1 30 2e bd 64 e0 87 bd
       -0.009086374 -0.014490878 -0.042527143 -0.06634596
000170 d6 a5 c8 bc 3f 8c 18 3d 7a 16 d4 bd 8c c9 47 bd
       -0.02449314 0.037243124 -0.103558496 -0.048776194
000180 c0 3d 20 bc c4 84 8c bd 2c 81 c5 3d 83 10 ba 3d
       -0.009780347 -0.068612605 0.09643778 0.090851806
000190 a9 4c ee 3d dc 2a 7c 39 35 3c 12 3d 7d 61 01 bd
       0.116357155 0.00024048559 0.03570195 -0.031587113
0001a0 fb 30 80 3c 4f 17 52 3d c3 63 f6 bc 6d f8 6e bd
       0.015648356 0.05129176 -0.030076867 -0.058342386
0001b0 da 1e 82 bb 49 5e cf bd a8 64 6b 3d 37 05 cc 3a
       -0.003970963 -0.10125405 0.05746904 0.0015565519
0001c0 49 f2 ce 3d 48 6e 06 bd 19 37 51 3c 64 f6 ad bd
       0.10104806 -0.032820016 0.012769484 -0.08494261
0001d0 0d d9 b6 bd 41 99 9e 3c b7 7e a1 3c aa 7d be 3d
       -0.08928118 0.019360187 0.019713743 0.09301312
0001e0 03 f2 64 3d ba 9f cb 3d 8b a8 a8 bc d2 e3 13 3d
       0.055894863 0.09942575 -0.02058818 0.03610594
0001f0 99 e5 df bc 7a 66 5e 3d 4e 70 ff bb 95 6d 92 3b
       -0.02733116 0.054296948 -0.00779537 0.0044686296
000200 8b 79 d0 3d bb f8 58 bd e8 59 93 3d 7a 09 9e 3d
       0.101794325 -0.052971583 0.07194883 0.07716651
000210 c8 78 a1 3c 9a 03 90 3d 10 0e dc bd 8d 98 23 3d
       0.019710913 0.07031937 -0.1074487 0.039940406
000220 1c 42 8d 3d 6d 16 b9 3d 7a 98 9a 3c 7b 0e 06 bc
       0.06897375 0.090374805 0.018871535 -0.008182163
000230 21 3f 37 3d 48 6c 66 3d 11 30 38 3d db 8d cc 3d
       0.04473794 0.05625561 0.044967715 0.09987994
000240 04 02 3c bd 16 1e e3 bd 3e 5f 97 bd cd b5 83 bc
       -0.04590036 -0.11089723 -0.07391213 -0.0160779
000250 e8 2a ef 3b 49 a0 00 bd 68 0b c7 bd 65 a5 c1 3c
       0.007298816 -0.03140286 -0.097189724 0.023638437
000260 28 1e 79 3d 88 fc d3 3c ce 04 cc 3d 2c c2 b0 3d
       0.060819775 0.025877252 0.09961854 0.08630785
000270 85 da f0 3b 16 48 32 3d dd 47 be 3d a8 c3 c1 bd
       0.0073502683 0.043525778 0.092910506 -0.094611466
000280 93 a9 03 bb 1c c5 8c bc 22 34 d1 3d c0 7e 9c bb
       -0.0020090088 -0.017183833 0.10215022 -0.004775852
000290 f6 f2 b9 3d ff 39 9c 3d 25 cc e6 bd 27 bc c1 3d
       0.09079544 0.076282494 -0.11269406 0.09459715
0002a0 45 7a ce bc c2 16 c9 3d 5f f4 ab bd ca c5 3b 3d
       -0.025204787 0.09818794 -0.083962195 0.045842923
0002b0 96 0c ca 3d 23 9c 9a bd f7 20 4d bd c7 bf 9b 3d
       0.09865682 -0.07549312 -0.050080266 0.07604938
0002c0 cc 16 82 bd 8f d9 c5 3d 2b 6c ab 3d 89 02 75 bd
       -0.063520044 0.09660637 0.08370241 -0.05981687
0002d0 ce 17 c6 bd a1 08 5e bd 3b bc ec 3d 04 08 69 3c
       -0.09672509 -0.054207448 0.115593396 0.0142231025
0002e0 b0 24 f4 3c 4b 4f 71 3d fa f1 df 3d 8d d4 37 3d
       0.02980265 0.05891351 0.10934825 0.04488044
0002f0 dc 9e 80 3d 6e f2 9b bd bd d2 be 3d 32 aa 38 bd
       0.062803 -0.07614599 0.09317539 -0.045084186
000300 a4 12 40 bd 8d 92 c3 bb 05 90 ac bd 16 56 eb 38
       -0.046892777 -0.005968398 -0.08425907 0.00011221708
000310 5b a7 d3 3c a8 b5 1f bd f1 7b 29 3c 5e 59 71 bd
       0.025836637 -0.0389916 0.010344491 -0.058923118
000320 af 3f 99 bd 7c 8e 1b bc e2 b0 40 39 5b cd 7d 3d
       -0.0748285 -0.00949442 0.00018376441 0.06196342
000330 f3 2d 83 bd 18 46 d0 bd 94 17 5d bd 43 22 87 3d
       -0.064052485 -0.10169619 -0.053977564 0.06598332
000340 e2 e7 8b 3d f8 08 ab bc 36 95 0a bd 2d 55 43 bd
       0.068313375 -0.0208783 -0.033833705 -0.04768865
000350 f5 20 a7 3c 47 8b 99 bd 3a 46 05 bd 43 52 cd bd
       0.020401457 -0.07497268 -0.032537676 -0.10025456
000360 76 02 53 3c 35 6b cc bc 81 28 53 3d cb a1 3c 3c
       0.012879005 -0.024953464 0.0515523 0.011513184
000370 9d e0 dd bc 0c 6a d5 bd 16 ca 63 3d 86 91 e2 bd
       -0.027084643 -0.104206175 0.055612646 -0.11062913
000380 a7 32 51 bc 0d 25 56 bc 71 14 66 3d f0 70 77 bd
       -0.012768424 -0.013070357 0.05617184 -0.06041044
000390 10 b5 d3 3d 37 77 87 3c 7a b4 6e bd 14 85 45 bd
       0.10337269 0.016536338 -0.058277585 -0.048222616
0003a0 f7 53 f9 3c 14 af 41 3d 68 d2 bf bd 24 dd 57 bd
       0.030435545 0.047286108 -0.09366304 -0.05270113
0003b0 3a 55 a9 ba f6 88 a4 3d 32 8d 57 3d 78 af 77 3c
       -0.0012919076 0.08033936 0.05262489 0.015117519
0003c0 58 4b f2 bc d8 f8 c6 3d b6 c6 85 bd 24 ff b1 3d
       -0.029576942 0.09715432 -0.06532042 0.08691242
0003d0 35 d9 73 bd e6 e3 35 3b c9 80 c5 3c 28 69 17 bd
       -0.059533317 0.0027754246 0.024109261 -0.03696552
0003e0 31 4d 3f bc 08 43 ce 3d 8e d9 89 bd 07 41 fd 3c
       -0.011676119 0.10071379 -0.067309484 0.030914797
0003f0 c0 40 ae 3d bf fd ad 3d 8f 33 f8 3c 27 6c da 3b
       0.08508444 0.08495664 0.030298023 0.006665725

sequential/conv2d_2/Conv2D f4 [32, 3, 3, 32]
000000 23 9b e0 bc bb 96 ce bd 82 41 ca bd 76 56 b7 3d
       -0.027417725 -0.10087343 -0.09875776 0.08952038
000010 ba 3f 34 bb 9e 88 9b bd 25 e8 19 bc 26 4e a5 bd
       -0.0027503804 -0.07594417 -0.0093937265 -0.08071546
000020 b3 03 8e 3b b5 00 2e bd 7a 37 b5 bc ea a9 da 3d
       0.004333937 -0.042481143 -0.02212118 0.1067694
000030 68 67 bc 3d c6 cb 7a bd 0b 0c 2c 3c c9 39 4a 3d
       0.09199411 -0.06122949 0.010500918 0.049371514
000040 16 17 5b bd cc 50 42 3d 81 a2 ad bc 1a f4 53 3d
       -0.053488813 0.047440335 -0.021195652 0.051746465
000050 b4 ad a1 3d cf 1f d5 3c d3 f3 2f 3d de fb ad 3d
       0.07894459 0.026016144 0.04295714 0.084953055
000060 ce a6 23 bd 60 19 98 3c 64 e4 c4 3b c5 40 94 3d
       -0.039954 0.018566787 0.0060086716 0.07238916
000070 22 0b 89 bd f6 71 d6 3c a2 d1 83 3d a1 82 dd bc
       -0.066915765 0.026177388 0.06436469 -0.027039828
000080 1e d3 3f bd 8d 66 87 bd b6 46 9e bd 52 29 24 3c
       -0.046832196 -0.06611357 -0.07728331 0.010019617
000090 d3 d9 a0 bd 7c b0 c6 3d 92 a2 bf bb 22 70 6a bc
       -0.07854047 0.097016305 -0.0058482373 -0.014308961
0000a0 da 8d a8 3d 9a 86 72 3d 45 94 9b bd 36 e9 45 3d
       0.08230181 0.059210397 -0.075966395 0.04831811
0000b0 15 94 bf 3d 55 a2 62 3c 33 ea 83 3d e1 dd c8 3d
       0.09354416 0.013832648 0.06441154 0.09807945
0000c0 d3 28 54 3d 47 3f 11 bd 6a 48 2c bd 81 b0 76 3d
       0.051796746 -0.035460737 -0.042061247 0.06022692
0000d0 1e 4c 49 bd 47 e2 96 bd be 64 bb bc 8a a9 b3 bc
       -0.049144857 -0.07367378 -0.022875186 -0.021931428
0000e0 2a 52 ab bd cb 2a 7f bd 14 6a 42 bd 03 cc 59 bc
       -0.08365281 -0.06229667 -0.047464445 -0.013293269
0000f0 09 ac 36 bd 88 3c c6 3d 24 1a c3 3d 29 5d 04 3d
       -0.04459766 0.09679514 0.0952647 0.032315407
000100 64 a5 00 3d 3a 64 3a 3d ce b4 ca 3b 7d 06 8c bd
       0.03140773 0.04550574 0.0061861044 -0.06837175
000110 a5 9a ae bd 47 8b cd 3d f2 0e 10 3d 94 8d bf bd
       -0.0852559 0.10036331 0.035170503 -0.09353176
000120 b5 5c 18 bd 48 bc 84 bd f5 d0 36 3d 2a b8 ba 3d
       -0.037197787 -0.06481224 0.04463287 0.09117158
000130 78 0a f6 3c 9e e9 46 bc c6 98 04 3b c4 cd c8 bd
       0.030034289 -0.01214066 0.0020232662 -0.09804872
000140 31 32 12 bd 43 01 15 bd 4e 8f ac 3d 95 6c bf 3d
       -0.035692398 -0.036378156 0.08425771 0.09346882
000150 72 7e a3 bd 00 de cb bd 47 33 9e bd 89 82 a4 bb
       -0.07983102 -0.099544525 -0.07724624 -0.005020444
000160 06 26 c0 3d ce 87 c7 3c f3 ea ac 3d 84 1e 49 3d
       0.093822524 0.024356749 0.084432505 0.049101368
000170 5a 9f 00 3d ae 8d 62 bd 70 56 cc 3d b4 82 c5 3d
       0.03140197 -0.055310898 0.09977424 0.0964407
000180 58 5e 5b 3d c9 5f 7f 3d f8 c4 85 3d 70 69 68 bc
       0.05355677 0.062347207 0.065317094 -0.0141852945
000190 17 a7 86 bd 9d ef 3d 3c 52 41 94 3d fd ef 77 bc
       -0.065748386 0.011592773 0.07239021 -0.015132901
0001a0 b5 e8 a8 bd 7b 5a 0a 3c 0b 41 a0 3c d7 aa 31 bd
       -0.0824751 0.008444424 0.019562265 -0.043375816
0001b0 37 49 a4 bd 37 85 a4 bd 9e f0 1c bd 97 7d 3a bd
       -0.08021777 -0.08033221 -0.038315408 -0.045529928
0001c0 d5 bd 82 bd a8 4a 29 bd 55 db 2c bc 0d 7a 45 bd
       -0.06383864 -0.041330963 -0.01055034 -0.0482121
0001d0 76 b9 c4 3c 38 ec 3c bd e6 26 90 bd 31 39 43 3d
       0.024014216 -0.046123713 -0.07038669 0.047661964
0001e0 a2 cb c5 3d 22 f3 ae 3d 20 03 8f 3d 6f 7c f1 ba
       0.096579805 0.08542468 0.06983018 -0.0018423925
0001f0 05 16 b2 bd cc bc aa bc 1c 96 6d bb cf b9 42 bd
       -0.08695606 -0.020841978 -0.0036252802 -0.047540482
000200 b7 19 c7 3d ec ee ab 3d d4 96 82 bc f3 00 5c bd
       0.097217016 0.0839518 -0.015941061 -0.053711843
000210 a8 12 28 bd d9 8e b4 3d c4 71 b6 3d f4 3a a0 bd
       -0.041033417 0.088163085 0.08908418 -0.078237444
000220 0f 23 22 bd ec 95 9b bc bb 13 d2 bc ea e8 65 3d
       -0.039584216 -0.018992387 -0.025644174 0.056130327
000230 89 b4 80 3d 9a b5 3c 3d 9c 58 1e bd f1 6a 5c 3d
       0.06284434 0.046071626 -0.038658723 0.053812925
000240 55 68 93 bb ba 9a 80 bc be 30 de 3c 3e 1f 20 bd
       -0.0044985213 -0.01569878 0.027122851 -0.039092295
000250 a5 8e dd 3c 5d 6c 55 3d e5 f1 83 bd 77 22 58 bc
       0.027045557 0.052105296 -0.06442622 -0.013191811
000260 69 c0 d1 bc 38 dc 1b bc 1f bf 15 bd 76 16 ff 3c
       -0.025604444 -0.009512953 -0.03655922 0.03113864
000270 49 2f bf bb dc c8 44 3d 12 d9 b7 3d 9d 7c 67 bc
       -0.0058344943 0.048043117 0.0897695 -0.014128831
000280 b1 72 b8 3d 13 53 b7 bd 1d 9a 45 bd d2 95 c8 3c
       0.09006251 -0.08951392 -0.048242677 0.024485502
000290 6b 5d 8d 3d 9c 84 6f bb da 67 aa 3d 3f 90 a4 bc
       0.06902584 -0.0036547547 0.08320589 -0.020088313
0002a0 80 70 7b 3d 06 48 b4 3d d9 50 90 bd 19 16 c5 3d
       0.061386585 0.088028 -0.070466705 0.096233554
0002b0 15 4a e5 3c 76 b4 b3 bd 3c 96 b2 3c b4 89 98 3d
       0.027989427 -0.087746546 0.021800153 0.0744814
0002c0 44 7f 8b 3a c2 f6 93 3d 5b 7d c3 3d 99 74 80 bc
       0.0010642787 0.072248 0.09545394 -0.015680598
0002d0 d4 a3 94 3d 14 22 97 bd 8c 34 9a 3b bf dc 0c 3d
       0.0725781 -0.07379547 0.004705971 0.034390207
0002e0 c6 2b 4d 3d 41 cb ca 3c 09 8c ab bc 94 fa 73 bd
       0.050090574 0.024755122 -0.020940797 -0.05956514
0002f0 d6 fc a5 ba c7 74 52 bd 12 9a af 3d bb ef b7 bc
       -0.0012663852 -0.0513809 0.085743085 -0.02245318
000300 25 a1 ab bd 30 04 9b bd ae 2f 36 bd 58 55 f7 3c
       -0.08380345 -0.07569158 -0.044479065 0.030192062
000310 b7 69 72 bb 5a 8f 29 bd 0f f1 30 bb 48 50 64 3c
       -0.003698928 -0.041396476 -0.002699915 0.013935156
000320 d2 64 a7 bd 2a b2 dc bc 35 d7 d5 3c 3c 13 b8 3d
       -0.08173527 -0.026940424 0.026103595 0.08988044
000330 d2 94 a3 3b 18 d4 24 3d ce bf b7 3d 33 8e 9f bd
       0.004992106 0.04024133 0.08972131 -0.07790794
000340 46 47 51 3d b3 7b b4 3d 94 03 9f bd 0b 44 86 bc
       0.051093362 0.08812656 -0.07764354 -0.016389867
000350 3c 7f a5 3d 10 85 a1 3c 3e 99 86 bd 1d 30 8a 3a
       0.08080909 0.01971677 -0.065721974 0.0010542903
000360 8e fa 14 3d e2 8b cb bd 7b 9f 65 bd d4 48 c7 3d
       0.03637176 -0.0993879 -0.056060296 0.09730688
000370 ac 75 40 bc 44 90 f9 bc fe bb 1c 3c 68 f5 0c bd
       -0.011746805 -0.030464299 0.009566305 -0.034413725
000380 48 90 80 bd 0d 92 a3 3d 58 29 af bd 56 14 1f bd
       -0.062775195 0.07986841 -0.085528076 -0.038837753
000390 cf 3c 43 3c 6b fc b8 3d 19 53 2e bd 43 5e 5b 3d
       0.011916353 0.0903252 -0.042559717 0.05355669
0003a0 17 e2 9a bd 33 6a f7 3c 8f 9a 46 3d 26 fd 34 3b
       -0.075626545 0.030202007 0.048487242 0.0027616709
0003b0 63 ff 9a 3d 59 01 ef bc fe 77 4f 3d 3c 32 a5 3d
       0.075682424 -0.029175447 0.050651543 0.08066222
0003c0 8a f8 d4 3d c5 af 8c bd ba 22 41 3d f1 77 57 bd
       0.103989676 -0.06869463 0.04715226 -0.05260462
0003d0 d2 81 41 bb 03 4b b4 3d d5 5e ac bb a7 ea cd 3c
       -0.0029526842 0.0880337 -0.0052603283 0.025136305
0003e0 08 26 c0 bd 3c 64 79 bc 3f bd a0 3c af 07 1c bb
       -0.09382254 -0.015221652 0.01962149 -0.002380829
0003f0 a9 d8 22 3d ef fc d8 3c 74 e6 f1 3c 05 c6 92 bd
       0.039757404 0.026487796 0.029528834 -0.071666755

std.constant f4 [16]
000000 85 45 40 37 f9 d6 ad bc 14 29 03 bc 0e b5 8c 3c
       1.1460278e-05 -0.021220671 -0.008005399 0.017176177
000010 2f ad 0b bd a6 32 b5 3a 09 ee 73 ba 95 92 a6 3b
       -0.034100708 0.0013824299 -0.00093051844 0.005083392
000020 06 58 ec 3a 54 4f 23 ba ad 11 1c bc d8 cf c6 b9
       0.0018031604 -0.00062297774 -0.009525699 -0.0003792036
000030 55 80 35 38 78 f6 d2 bb c1 18 89 b8 4f b3 b8 ba
       4.327328e-05 -0.006438073 -6.53728e-05 -0.0014091524

std.constant1 f4 [32]
000000 86 a0 6d bc 2d 7d 68 3c be 23 09 bc 8e fe 9c bb
       -0.014503604 0.0141900005 -0.008370338 -0.0047910875
000010 6b a0 97 bb 6d 8c af ba db 72 b5 bc e2 4f d4 b8
       -0.0046272776 -0.001339329 -0.022149494 -0.00010123827
000020 16 10 68 bb 08 11 b4 3c a3 9b 5c bb 24 44 63 bc
       -0.0035409979 0.021980777 -0.0033662103 -0.013871226
000030 f2 c5 c2 3c ab 76 05 bd b3 64 10 bc d3 33 82 bb
       0.023776028 -0.032583874 -0.008813071 -0.003973463
000040 6f 9f ff 3b 05 f5 7d 3b 30 4d 15 bb 24 c0 0e ba
       0.0078009884 0.003875078 -0.0022781603 -0.00054455013
000050 1e cf b4 39 36 3b c3 ba 5e 6d b1 bc 28 a3 0e bc
       0.0003448659 -0.0014894966 -0.021658596 -0.008705892
000060 80 ea 87 3b 77 48 bf 3b 2b d9 23 bb 14 f2 a2 3c
       0.0041478276 0.005837496 -0.0025001268 0.019890822
000070 b8 da b5 39 76 7e 85 bb 6a 33 72 ba 3f 57 cc 3b
       0.00034685968 -0.004073913 -0.00092392287 0.0062359865

std.constant2 f4 [32]
000000 8b 9e 2d bc 87 ba b9 3c cd f5 52 bb 62 50 c3 3b
       -0.010596882 0.022671951 -0.0032189966 0.00596051
000010 6e b0 42 3a 5c cb 26 3d 04 df 12 3b 24 e3 a2 bb
       0.0007426803 0.040721282 0.002241076 -0.004970925
000020 7e dd a5 3b ee 26 32 39 75 be 1a bc 17 82 81 3a
       0.0050618043 0.00016989905 -0.009444823 0.0009880689
000030 29 cd 84 bb af 4e 12 bb ae 11 96 ba 4b 4a aa 39
       -0.0040527773 -0.002232473 -0.0011449361 0.0003248028
000040 13 61 81 bb da f0 de bc a1 8e 25 bd a9 83 89 bc
       -0.0039483397 -0.027214456 -0.040419225 -0.016786413
000050 46 f6 81 3b 0b 5d a3 ba 69 ce 60 bc 65 62 d8 3b
       0.0039661257 -0.0012463642 -0.013721087 0.0066035264
000060 25 05 6a 3b 2c af c4 bb f5 fb f5 3b e4 ff 8f bb
       0.0035708633 -0.0060023274 0.0075068423 -0.004394518
000070 a2 b8 80 39 1c 83 81 3c a3 12 4b bb a8 46 01 3b
       0.00024551625 0.015809588 -0.003098645 0.0019725952
